sales_model.pth (torch, 228485 bytes, 5 tensors)

layers.0.weight f4 [256, 90]
000000 e7 20 cd bb aa c5 85 bb bc d4 a4 3d 9d dd 98 bd
       -0.006260026 -0.0040824013 0.08048388 -0.074641444
000010 90 82 21 bc 13 39 ab ac 95 46 de aa 70 18 fb ab
       -0.009857789 -4.866449e-12 -3.9484098e-13 -1.7841405e-12
000020 41 d0 cd ac 52 29 85 ad 1e 0a 08 2f 3f 21 7d 29
       -5.8495713e-12 -1.51387e-11 1.2372722e-10 5.620612e-14
000030 73 88 ce 2e db e3 2b ae 4f b4 e1 ae 62 46 92 a6
       9.392034e-11 -3.9083275e-11 -1.02638446e-10 -1.0149862e-15
000040 c3 ff 66 ae ad da b0 af 5c 4d 5c 30 fc 66 9d ae
       -5.2523107e-11 -3.2169592e-10 8.014547e-10 -7.157827e-11
000050 f1 1b 89 ae 58 27 9e a8 93 3d 77 af 00 ca 49 b3
       -6.235002e-11 -1.7558586e-14 -2.2486395e-10 -4.6982677e-08
000060 e7 65 70 b0 5d 49 2d ae 30 99 f9 ab 24 f6 3e 2e
       -8.7456303e-10 -3.9400806e-11 -1.7735032e-12 4.3419615e-11
000070 2e 85 48 ae 0f a5 1a 31 b4 57 6b a8 0e e6 d9 2e
       -4.5593022e-11 2.2503774e-09 -1.3064138e-14 9.9088834e-11
000080 0f 19 7b ab 5d 85 d0 ad c3 6d 67 af 63 c6 f8 2e
       -8.920789e-13 -2.3706087e-11 -2.1048323e-10 1.1312975e-10
000090 0f 03 be ab 36 a8 ef ae 7d f9 3e ab dc fc 05 2e
       -1.3501161e-12 -1.0898342e-10 -6.7847794e-13 3.0465283e-11
0000a0 08 1a 76 ad 80 da 53 2f 4f 4a 58 b0 4e dd bb ac
       -1.3989261e-11 1.9267965e-10 -7.868594e-10 -5.3394294e-12
0000b0 a1 7f 4d 2f 7c c8 db 2d a9 9b dd a9 4e 91 a7 ac
       1.8689984e-10 2.498645e-11 -9.841374e-14 -4.7625575e-12
0000c0 64 3f a1 28 51 1a 82 a5 3b a6 ce 2f 81 d2 00 ab
       1.7902082e-14 -2.2569238e-16 3.7589296e-10 -4.576687e-13
0000d0 3f 70 10 31 d3 c3 62 ab e7 15 76 ab db 8e 3b b0
       2.1018562e-09 -8.056309e-13 -8.742715e-13 -6.8233214e-10
0000e0 bb 60 da 2f aa 3a 83 31 49 b6 da 36 39 18 78 b4
       3.97227e-10 3.819271e-09 6.518127e-06 -2.3105612e-07
0000f0 fe 58 38 af 3f 50 53 37 b1 7f d8 2f 90 a4 02 b5
       -1.6766319e-10 1.2595264e-05 3.93809e-10 -4.8668244e-07
000100 c3 d2 0c 31 fd e1 76 b1 5b 9e 55 b1 fb 22 0e af
       2.0492485e-09 -3.592617e-09 -3.1085594e-09 -1.2927252e-10
000110 be 90 55 2f b5 b0 30 2e bd 69 0f b2 a8 f3 df b4
       1.942366e-10 4.0174714e-11 -8.347738e-09 -4.171427e-07
000120 74 77 7e b2 3a 86 d9 b3 a7 e5 cf b5 78 7a 3c b4
       -1.4811906e-08 -1.01292656e-07 -1.548954e-06 -1.7553418e-07
000130 51 2f 5d 36 84 08 1c 36 d6 1a 6e 36 58 d0 85 b3
       3.2959108e-06 2.3250768e-06 3.5480384e-06 -6.2311926e-08
000140 92 63 6d b5 09 53 6a b1 63 57 70 b0 1a 42 46 b4
       -8.8434274e-07 -3.4098682e-09 -8.7435675e-10 -1.8464235e-07
000150 a0 1c 79 34 ca 91 39 2f 92 e8 ee 30 6c 4d b7 31
       2.3200346e-07 1.6877447e-10 1.738288e-09 5.334803e-09
000160 d5 4f 3d b5 fa 96 65 32 6f 4b 1f 3d 51 83 10 bd
       -7.052416e-07 1.33638824e-08 0.0388903 -0.035281483
000170 5c 2e c0 3d d1 d2 1b bd c4 e0 c9 3d 95 3f 0e bd
       0.09383842 -0.038042847 0.09857324 -0.034728605
000180 8d 5e 0d bd 2e f9 07 3c 05 2d 92 3d 83 9d 04 be
       -0.034514 0.008299155 0.07137493 -0.12950711
000190 77 13 04 be 05 54 58 3d 18 a2 46 3d c7 11 01 3d
       -0.1289805 0.052814502 0.04849443 0.031511094
0001a0 e9 7e 9a 3d a4 d5 cc bc 5c 13 6d bd bb 01 8a bd
       0.075437374 -0.025004216 -0.05787979 -0.06738611
0001b0 12 d4 9c bd 46 bb bb bd db 6a cd bd 55 71 33 bc
       -0.07657637 -0.09166579 -0.10030147 -0.010952313
0001c0 29 2f 16 3d 68 56 80 3e 9b 18 bd 3d 43 20 0c 3e
       0.03666607 0.25065923 0.09233209 0.13684182
0001d0 1a 60 cd bd 88 3a 27 3d b6 5f cc bc 5f 4a 14 be
       -0.100280955 0.040827304 -0.024947982 -0.14481495
0001e0 fb aa 10 be 87 17 b7 bd 04 90 7b 3e ab 05 b6 bd
       -0.14127724 -0.08940034 0.24566656 -0.088878
0001f0 40 8f 5b 3d 60 38 58 be b3 2f c5 bc 5b 1b 8b bb
       0.05360341 -0.21115255 -0.024070596 -0.0042452044
000200 55 e2 03 be d4 93 44 be 57 2b 6a bb 23 e8 f0 3c
       -0.12879308 -0.19197017 -0.00357314 0.029407566
000210 65 5a 21 3d a2 58 f9 bd f7 f7 a6 3d ab f7 73 3d
       0.039392848 -0.121751085 0.08152764 0.059562366
000220 b0 ba 1e be 1b cb 8d bd fd e3 24 be 7a 7d ce bc
       -0.15500903 -0.06923505 -0.16102596 -0.025206316
000230 6b c3 dc 3c b0 d7 6f bd 0d 05 0c be 2b 0a 07 be
       0.026948651 -0.058555305 -0.13673802 -0.13187473
000240 e7 f2 cb bd 39 81 84 3e b4 4c 8e 3e de aa 72 bd
       -0.09958439 0.2587984 0.27792895 -0.059244983
000250 06 f6 2e 3c a8 12 b6 3e ed ae a8 be 0b 61 41 bd
       0.010678774 0.3556111 -0.32945958 -0.047211688
000260 81 09 a6 be a5 64 99 3e 81 6e 4b be af fa 5f be
       -0.32429126 0.29959598 -0.19866373 -0.21872972
000270 04 fa 91 be e4 fc 34 be 24 ef 8c be a4 1b af 3c
       -0.2851106 -0.17674595 -0.275262 0.021375485
000280 4a 6a 7c 3e f7 7f 20 bd 78 29 15 3f 56 25 e8 3e
       0.24649921 -0.039184537 0.582664 0.45340985
000290 ec 3f 85 3c b4 84 ce 3e cd 89 50 3c 64 50 90 3e
       0.016265832 0.4033562 0.012728167 0.28186333
0002a0 f3 89 ba 3e 44 59 5e be 05 6b f7 3d 15 0f d7 bd
       0.36433372 -0.2171374 0.12080959 -0.105009235
0002b0 63 44 ae be 2c 24 8c 3d e5 12 36 3e 92 41 8b bd
       -0.3403655 0.06842837 0.17780645 -0.06799616
0002c0 4e 16 75 be 27 1b 1f bd ff fe 90 3d 00 d4 63 3e
       -0.2393429 -0.038844254 0.07079887 0.2224884
0002d0 5b 45 d1 b9 c0 0f f7 3c 39 39 3a b9 98 7e 64 3e
       -0.0003991526 0.030158877 -0.0001775966 0.22313917
0002e0 1b e9 08 3e 37 86 78 3e 00 23 c2 3e ba c1 70 3e
       0.13370173 0.24269949 0.37917328 0.23511401
0002f0 58 d2 c4 bd 20 ff 76 3e 95 ff 68 3c c6 a4 90 3e
       -0.096104324 0.2412076 0.014221092 0.28250712
000300 c9 8d ba 3d f5 bb 8f be 85 e3 81 3d ea fa a1 be
       0.091090746 -0.28073087 0.06342224 -0.31636745
000310 24 7f a1 be b7 e1 a8 be 58 0d eb be 3d ba cc be
       -0.31542313 -0.32984707 -0.45908618 -0.3998584
000320 7d 2a d3 bd c5 50 46 bd 7f 11 0d be 1b c8 96 be
       -0.10310838 -0.04841687 -0.13776205 -0.29449543
000330 41 21 0b bf 3b ba fd bc 63 3a a4 be 02 71 ea 3c
       -0.54347616 -0.03097259 -0.32075796 0.02861834
000340 ed 78 2a 3e e8 4f 4d be 41 6e 21 3e 81 d1 a9 bd
       0.16647692 -0.20050013 0.15764715 -0.08291913
000350 38 21 06 bf 1e 60 b7 be 41 c6 a6 3a df 55 02 bf
       -0.5239444 -0.3581552 0.0012723879 -0.5091228
000360 35 b8 bf be e7 21 a2 be f6 70 84 be 85 32 49 bd
       -0.37445226 -0.3166649 -0.25867432 -0.049120445
000370 3c 09 54 bd b1 af a3 3e 6c 91 28 3e ad c7 9a be
       -0.05176662 0.3196998 0.16461724 -0.30230466
000380 bf 65 93 3e 0f 2a 0c bf fb 00 7d be 74 a5 b6 3e
       0.28788564 -0.54751676 -0.24707405 0.35673106
000390 57 96 ca 3e d9 19 ae 3e 7a d4 b9 3e 22 14 9d 3e
       0.39567825 0.34004095 0.3629492 0.30679423
0003a0 b5 27 a9 3e 66 9d 27 3e 56 68 59 3e 1d 0f 96 bf
       0.33038107 0.16368636 0.21231207 -1.1723362
0003b0 53 ec 0d 3f 76 28 0d be 0f e8 83 bf b0 bc 5e 3e
       0.5543873 -0.13784966 -1.0305194 0.21751666
0003c0 f0 4d eb 3e c5 e2 7f bf b5 83 6d 3c c9 f3 25 bf
       0.459579 -0.999554 0.014496733 -0.6482511
0003d0 81 6a f6 3d 0d b0 9f 3e da c3 06 bd ee 43 44 3e
       0.12032033 0.31189004 -0.032901622 0.19166538
0003e0 cd ae de 3e 3b 1c de 3e 00 d8 aa 3e ec 3e 26 bf
       0.43492737 0.43380913 0.3336792 -0.6493976
0003f0 9b f7 be be 5c e8 2c bf 5f 66 42 bf c7 04 b3 3d
       -0.37298283 -0.6754205 -0.75937456 0.087411456

layers.0.bias f4 [256]
000000 34 64 bf bc 43 02 4a 3c fb 4b b2 bd 90 17 b9 b8
       -0.02336321 0.012329641 -0.087058984 -8.825876e-05
000010 68 03 b8 99 06 5c 05 00 6a 82 25 3c 0e 52 82 3b
       -1.902653e-23 4.92189e-40 0.010101894 0.003977067
000020 55 18 3c 3d 77 67 5e 3d 2a 57 72 bd e5 64 0f ae
       0.045921642 0.05429789 -0.059165157 -3.2604048e-11
000030 4b 8d 24 3d a1 43 23 91 33 43 e1 bc 3e a4 3f 3d
       0.04017381 -1.2879273e-28 -0.027497863 0.046787493
000040 8d a6 bf a6 17 f6 00 bb f9 b0 41 9a c1 28 dd a7
       -1.3298431e-15 -0.001967793 -4.0054422e-23 -6.1384008e-15
000050 68 69 05 00 0c 23 98 b9 92 3f 17 3c 41 e2 1d bd
       4.9699e-40 -0.0002901781 0.009231465 -0.03854585
000060 81 42 bc bd a5 18 03 bd 11 5f ab 3d 9b 61 05 00
       -0.09192372 -0.032005925 0.08367742 4.94192e-40
000070 22 ab b3 bd 61 0d b2 bd 62 22 da bc ca f7 97 3b
       -0.08772875 -0.08693958 -0.026627723 0.004637693
000080 6c ef 12 3d db 5b 05 80 06 24 68 3b 98 35 1b af
       0.03587286 -4.92129e-40 0.0035421862 -1.4116208e-10
000090 02 99 ed bc eb 47 70 3d 19 25 ec bc ad 66 05 80
       -0.029003624 0.058662336 -0.028826283 -4.9601e-40
0000a0 db 59 a1 a9 b5 32 40 ba 79 0c af 3c 66 9f 0b bd
       -7.165424e-14 -0.00073317747 0.021368252 -0.03408756
0000b0 cb 64 8b b4 f6 5f ef 94 a0 b0 82 3c 4f 3c 16 ba
       -2.5964104e-07 -2.4170683e-26 0.015953362 -0.00057310326
0000c0 81 3a 07 bd 2c 4a 86 bd 70 fc ef bb 0f 52 06 80
       -0.033014778 -0.06557116 -0.007323794 -5.8045e-40
0000d0 1e 25 49 02 d3 6e 05 00 68 4e 51 3d be 0e b2 3d
       1.47778e-37 4.98934e-40 0.051100165 0.08694218
0000e0 eb 37 e7 3c 95 7e 88 3d 4a 28 00 3c 54 35 b3 bd
       0.028224906 0.066647686 0.007822106 -0.08750406
0000f0 4f 45 5b bc 0e f5 22 bd fa 26 ca bd 31 14 b5 bc
       -0.013383224 -0.039784484 -0.098707154 -0.022104355
000100 d6 22 cd bc cb 27 50 bd 2b 40 9b bd d6 34 db bd
       -0.025041025 -0.0508192 -0.075805984 -0.10703437
000110 26 9c fb 3b 0f 91 91 bc bf a3 85 3d 65 66 b0 bd
       0.0076785265 -0.017769365 0.06525373 -0.0861328
000120 ec 50 0d ab 3d 3d f0 3c cd 28 8b 3d 3f 20 cc bd
       -5.0205565e-13 0.029326076 0.067948915 -0.09967088
000130 83 4e 17 bd 78 5b 05 00 fb 57 a6 3d 59 29 10 bb
       -0.03694011 4.9199e-40 0.0812225 -0.0021997301
000140 16 9f 5b bd 6b 7e 5e bd a5 c5 87 bc 60 dc d7 b8
       -0.053618513 -0.05431978 -0.016573736 -0.00010293047
000150 85 6f 05 00 73 ed b6 bd dc 61 1a 9a d5 75 95 3d
       4.99183e-40 -0.089320086 -3.1925504e-23 0.07297865
000160 32 ba 0d 3d 34 04 96 bb 74 ab b0 3d 8b a8 82 3c
       0.034601398 -0.004578138 0.08626452 0.015949508
000170 21 5c 62 bd a6 9f 05 80 10 77 a6 3a 1a 61 7d 3d
       -0.055263642 -5.16449e-40 0.0012700278 0.06186018
000180 9a f3 e4 3a a9 3f 2f ba 24 58 05 00 51 52 51 bb
       0.0017467618 -0.00066852063 4.90796e-40 -0.0031939934
000190 2c 61 05 00 a2 1e 83 b8 b0 4f 64 3d e6 f9 11 9d
       4.94036e-40 -6.2522726e-05 0.05574006 -1.9319785e-21
0001a0 95 85 82 bd 1f 71 3e a1 1a be d9 bb d8 af a8 bc
       -0.06373135 -6.452422e-19 -0.0066449763 -0.020591661
0001b0 24 6f 05 80 50 9a f8 bc f6 e4 cb bd 23 23 aa bd
       -4.99047e-40 -0.03034702 -0.0995578 -0.08307483
0001c0 8a c8 8a 3d c9 2e 1f 2f be c8 a2 bd 83 b8 cd bd
       0.06776531 1.4477587e-10 -0.07948445 -0.100449584
0001d0 16 91 df bd a6 f9 92 bd a1 ce 26 bc 9f 2a 6f bc
       -0.10916345 -0.07176523 -0.0101811 -0.014597564
0001e0 7f aa 90 bb 9c 43 68 bd 70 4a 1c 3c 1d 01 c3 bd
       -0.004414856 -0.056705102 0.009539232 -0.09521697
0001f0 44 9f 36 b2 7d 5c 05 80 7e 59 05 80 f0 35 c7 b9
       -1.0630007e-08 -4.92356e-40 -4.91281e-40 -0.00037996424
000200 38 03 ba 3d 5a 75 09 bb 07 a8 e4 a8 ed 0c 5f 3d
       0.09082645 -0.0020974488 -2.5385955e-14 0.054455686
000210 6e 29 a0 bb 00 66 05 00 e8 b5 85 bd f0 ae 13 bd
       -0.0048877513 4.95768e-40 -0.065288365 -0.036055505
000220 30 79 80 3d b7 0b 8a 3d 6d c1 ce 3d c1 77 96 bd
       0.06273115 0.06740516 0.10095487 -0.0734706
000230 f7 2c 83 bd 2c 5f 05 00 43 63 05 00 d7 62 05 00
       -0.06405061 4.93319e-40 4.94786e-40 4.94635e-40
000240 11 35 46 3d bb e7 65 bd 81 be 67 bd ee 7a 00 bd
       0.04839045 -0.0561292 -0.056578163 -0.031367235
000250 b4 67 41 bd 2e 0d 73 3d be 01 e6 bc 5c 93 78 3d
       -0.04721804 0.05933874 -0.028077003 0.060687408
000260 e9 65 b6 bd 96 3c 28 3b e9 f7 cc bd 06 53 80 bc
       -0.089061566 0.0025670878 -0.100082226 -0.015664589
000270 8b 5c 05 80 bf 21 0f 3c 28 03 98 3d 05 33 5a bd
       -4.92376e-40 0.008736073 0.07422477 -0.053271312
000280 1a 3a 80 bd 49 15 d7 bd 22 9f 29 bb 8b 47 00 bd
       -0.06261082 -0.10502107 -0.0025882204 -0.03131823
000290 20 ea c2 bd 72 5a 05 00 e3 b7 13 a0 33 f7 79 ba
       -0.09517312 4.91623e-40 -1.2512227e-19 -0.0009535432
0002a0 32 80 94 3d 43 ea 8e 3d cd ba 4c 3d 54 c1 04 3c
       0.07251014 0.069782756 0.049982835 0.008102734
0002b0 0d 9f 69 bd 84 c0 d7 b6 18 2e 02 8b bf 6b fc b7
       -0.05703645 -6.429911e-06 -2.5071766e-32 -3.0090914e-05
0002c0 f3 f3 05 00 a0 73 2c ad 43 9d 03 b6 5f 26 70 3d
       5.4669e-40 -9.802742e-12 -1.961206e-06 0.058630344
0002d0 df 75 73 b9 47 60 ad bd 24 5b 05 00 3c 7c 08 ac
       -0.00023218196 -0.08465629 4.91873e-40 -1.9395726e-12
0002e0 7a 5c 05 00 4d c8 04 bd 0a 40 fb b6 8b 81 02 3d
       4.92352e-40 -0.032417584 -7.487838e-06 0.031861823
0002f0 57 b8 8c 3c 9e 13 ad bd bc 06 c6 bc a8 47 6f bd
       0.017177744 -0.08451007 -0.024173133 -0.058417946
000300 89 62 05 80 a9 2e d0 bd 75 16 72 bd 78 7f 0a 3d
       -4.94525e-40 -0.1016515 -0.059103448 0.03381297
000310 cd af e8 bc 12 f0 b2 9f a4 f0 65 3d 8b 4a 8f bd
       -0.02840414 -7.5783095e-20 0.056137696 -0.0699664
000320 37 51 94 34 5e 27 31 91 25 6a 5e bd c1 41 8a bd
       2.762624e-07 -1.3974969e-28 -0.054300446 -0.06750823
000330 93 b9 c4 3c 2e ac ba b6 de 68 05 00 33 38 6a bd
       0.02401427 -5.5632763e-06 4.96797e-40 -0.057182502
000340 95 e1 44 b9 ec 64 16 b0 6a 96 a9 bd c1 0a 4d 3d
       -0.00018776052 -5.47131e-10 -0.08280642 0.050059084
000350 63 97 37 bd 3a 09 2a b9 65 27 48 af 8c c6 c8 3b
       -0.044822108 -0.000162159 -1.820389e-10 0.0061271843
000360 ed 92 b4 ae 78 b7 4c 3d 8a 8a 5d 3d 9e 8b 86 ab
       -8.2115516e-11 0.049979657 0.0540872 -9.560024e-13
000370 d2 cf 68 3d a4 cd 1d bd 96 3e ce bd 5f 70 ba 3d
       0.056838818 -0.038526192 -0.10070531 0.09103464
000380 95 80 1f 3c ef 8e b0 bd f8 02 4d bd 7b 13 5c bd
       0.009735246 -0.086210124 -0.05005166 -0.053729516
000390 3e c9 ab ab 26 21 5c bb 77 b9 2f bd 29 86 db bb
       -1.2206137e-12 -0.0033589094 -0.042901482 -0.0066993427
0003a0 51 21 96 3c a9 00 4a bd 01 1b 28 bd bc 3b c6 bd
       0.018326433 -0.049317036 -0.041041378 -0.09679362
0003b0 fc 7a bb bd 05 68 05 00 03 86 93 a9 3f c5 a0 3d
       -0.09154317 4.96493e-40 -6.551359e-14 0.07850122
0003c0 dc 26 76 bd 8c 37 73 ba 36 67 b8 ba 15 22 df ba
       -0.060095653 -0.00092779915 -0.0014068845 -0.0017023707
0003d0 52 3b 6f bb 3e 24 40 3d dc be ce ab 3a d3 06 80
       -0.0036503864 0.046909563 -1.4690154e-12 -6.26787e-40
0003e0 b7 44 b8 bd 71 66 05 00 ee 94 ba bb 14 12 6b 3c
       -0.08997481 4.95927e-40 -0.0056940233 0.014347572
0003f0 df c1 cd b6 17 ff 85 b2 be e5 2a 3c 22 38 b3 bc
       -6.1320457e-06 -1.559924e-08 0.010430751 -0.021877352

layers.2.weight f4 [128, 256]
000000 be 72 05 00 7f a7 bd bb d3 58 05 00 ef 7c 05 80
       5.00339e-40 -0.0057877894 4.91042e-40 -5.03995e-40
000010 f5 5b 05 80 d2 d0 05 80 ff 02 d2 bb b3 5b 05 80
       -4.92165e-40 -5.34088e-40 -0.0064090486 -4.92073e-40
000020 4f 46 aa bb 92 9e bc bb 62 80 05 00 87 61 05 00
       -0.0051963697 -0.0057562077 5.05233e-40 4.94164e-40
000030 0f d0 b9 bb 67 78 05 00 e8 82 ec bb 0d 9b 01 bb
       -0.0056705545 5.0237e-40 -0.0072177537 -0.0019776255
000040 20 8e 05 80 66 71 05 80 2e 79 05 00 17 26 01 a8
       -5.10162e-40 -4.99857e-40 5.02649e-40 -7.169198e-15
000050 92 8a 05 00 49 8b 05 00 21 0f 06 80 1b 60 05 80
       5.08887e-40 5.09144e-40 -5.5644e-40 -4.93654e-40
000060 9d ea 7c bb 76 27 9d b4 d9 cb f3 b9 57 81 05 80
       -0.003859199 -2.927224e-07 -0.0004650045 -5.05576e-40
000070 47 7d a9 bb c9 f2 e0 bb 83 de f0 bb df 59 05 80
       -0.005172405 -0.0068648797 -0.007350744 -4.91417e-40
000080 49 30 ad bb 82 5f 05 00 ab 57 05 00 77 96 05 00
       -0.005285297 4.93439e-40 4.90627e-40 5.13154e-40
000090 65 1b fe bb 3c 24 40 bb 95 15 d3 bb ce e6 05 80
       -0.0077547305 -0.0029318472 -0.0064417818 -5.41975e-40
0000a0 c7 5c 05 80 6c 5d 05 80 e5 e0 ec bb 0b e5 bf bb
       -4.9246e-40 -4.92691e-40 -0.007228958 -0.0058561615
0000b0 75 c2 05 80 65 10 06 80 f5 81 be bb 1d 0f 06 80
       -5.28936e-40 -5.56894e-40 -0.005813832 -5.56435e-40
0000c0 93 ab e2 bb dd 26 e4 bb c4 5d 05 00 74 68 05 00
       -0.006917426 -0.0069626407 4.92814e-40 4.96648e-40
0000d0 dc 63 05 00 9b 62 05 00 52 14 90 bb 6f 0c 82 bb
       4.95e-40 4.9455e-40 -0.0043969536 -0.0039687674
0000e0 e5 e0 e5 bb 3d 2b 53 ac 1d a7 ef bb 9a 2b ed bb
       -0.007015335 -3.0008906e-12 -0.0073136226 -0.0072378637
0000f0 90 c1 ed bb 83 cc fd ba b7 93 15 bb cc b7 ec bb
       -0.0072557405 -0.0019363317 -0.002282364 -0.0072240587
000100 2e 8c 06 80 2a 3e cb bb 49 45 f9 bb 8d 55 80 bb
       -6.013e-40 -0.006202479 -0.0076071364 -0.0039164484
000110 10 92 05 00 95 49 00 bc 30 63 4c bb d8 b9 ae bb
       5.11575e-40 -0.007830043 -0.003118705 -0.005332213
000120 9d 76 05 00 f6 ad cb bb d8 ea bb bb b3 a4 bc bb
       5.01728e-40 -0.006215806 -0.0057347827 -0.0057569384
000130 b4 d4 f5 bb 58 57 05 80 ff 59 8e b4 cc 39 07 bc
       -0.007502163 -4.9051e-40 -2.6515042e-07 -0.008253526
000140 cf 4c f5 bb ce 4f 06 80 fd ab b2 ba ac ac 06 00
       -0.007485963 -5.79642e-40 -0.0013631579 6.12956e-40
000150 29 a0 05 80 95 ed 15 b8 2e a5 05 00 bb 00 06 00
       -5.16632e-40 -3.5745634e-05 5.18433e-40 5.51275e-40
000160 86 f3 cc bb a1 68 8c b4 96 d9 cb bb 4e 45 f1 bb
       -0.006254616 -2.615316e-07 -0.0062210066 -0.007362998
000170 5c ed 87 bb 59 ad 05 00 89 81 05 00 93 6f ee bb
       -0.0041481685 5.21363e-40 5.05646e-40 -0.0072764843
000180 76 57 05 80 40 6d 05 00 be 80 05 00 26 71 05 00
       -4.90553e-40 4.98369e-40 5.05361e-40 4.99767e-40
000190 1c 7b 05 80 d2 6d 05 80 66 11 e1 bb d8 9d 05 80
       -5.03341e-40 -4.98574e-40 -0.006868529 -5.15801e-40
0001a0 10 38 c8 bb cd 77 05 00 fc cd 05 00 f9 de dc bb
       -0.006110199 5.02154e-40 5.33071e-40 -0.0067404476
0001b0 ac 21 06 00 8f e0 be ba a9 0b 4b b5 f2 7f f0 bb
       5.63092e-40 -0.0014562773 -7.564036e-07 -0.007339471
0001c0 5d 10 0f ba 7d 5c 05 80 e9 44 cf bb df cb bd bb
       -0.00054574554 -4.92356e-40 -0.0063253534 -0.0057921256
0001d0 1f d8 cc bb 0f 2f c4 bb cf 16 06 00 58 91 05 00
       -0.0062513496 -0.005987055 5.59195e-40 5.11317e-40
0001e0 23 b0 05 00 d3 cb 08 b8 f4 1d b0 bb ca c6 f1 b9
       5.22363e-40 -3.2614753e-05 -0.0053746644 -0.0004611521
0001f0 f5 62 05 80 3a 9d 06 00 c2 79 05 80 ea 7b 05 80
       -4.94677e-40 6.07415e-40 -5.02856e-40 -5.0363e-40
000200 93 91 52 b2 63 36 c7 bb dd 9d 05 00 7a 5c 05 00
       -1.22567085e-08 -0.0060794814 5.15808e-40 4.92352e-40
000210 aa 3f 06 80 83 7e 05 00 43 a3 35 ba ff 13 9f b1
       -5.73851e-40 5.04561e-40 -0.000692893 -4.6297823e-09
000220 35 ec d4 bb 30 00 88 bb cf 39 c1 bb 6b 36 c2 bb
       -0.0064978846 -0.004150413 -0.005896784 -0.0059268973
000230 21 95 c8 bb 5f 92 05 80 61 94 05 00 a7 96 05 80
       -0.006121293 -5.11686e-40 5.12406e-40 -5.13221e-40
000240 ca 6b d1 bb 76 24 5b bb 7a c2 af bb 97 4f b0 bb
       -0.0063910233 -0.003343848 -0.0053637596 -0.0053805816
000250 8f a4 f9 bb a7 a8 58 bb 58 5e 05 00 9f 3c f3 bb
       -0.007618494 -0.003305951 4.93022e-40 -0.007422998
000260 c7 12 a6 bb ce 5b 05 00 3d aa a4 bb 01 3b 06 00
       -0.0050681564 4.92111e-40 -0.005025177 5.7218e-40
000270 e8 8c 05 00 83 c4 05 80 8f 10 c2 b0 ea 8a f5 bb
       5.09725e-40 -5.29673e-40 -1.4120064e-09 -0.0074933665
000280 1d 67 df bb ba 5c 05 00 37 ad 05 80 55 9e ff ba
       -0.006817712 4.92442e-40 -5.21315e-40 -0.0019502143
000290 70 a2 fc bb 2a 7c 06 80 4a 98 05 00 e5 57 05 80
       -0.0077097937 -5.95555e-40 5.13809e-40 -4.90708e-40
0002a0 99 d5 37 bb 8d 81 e6 bb 7b 2f c0 bb 7c 5b 05 00
       -0.0028050898 -0.0070344866 -0.005865035 4.91996e-40
0002b0 b6 86 a3 ba a1 57 05 00 46 a6 05 00 c7 84 05 80
       -0.001247606 4.90613e-40 5.18825e-40 -5.06809e-40
0002c0 13 58 05 80 ae 62 05 80 a0 9b 05 00 f5 4f dc bb
       -4.90773e-40 -4.94577e-40 5.15005e-40 -0.006723399
0002d0 9a a3 05 00 fb c6 cc bb e7 60 05 80 05 96 05 80
       5.17867e-40 -0.0062493063 -4.9394e-40 -5.12994e-40
0002e0 6f 8e 05 80 02 d0 08 b8 6d 58 05 80 7b e9 c4 bb
       -5.10273e-40 -3.261865e-05 -4.90899e-40 -0.0060092784
0002f0 a3 69 8a b5 27 2f a2 bb 31 f5 a1 bb fd 3a f3 bb
       -1.0312546e-06 -0.0049494687 -0.004942559 -0.0074228034
000300 02 6e 05 80 d8 71 ef bb 1d f4 de bb 2f 80 c5 bb
       -4.98641e-40 -0.0073072724 -0.006804003 -0.0060272436
000310 3d df d9 b9 f3 72 05 00 ad 9b 5e b9 60 ce f6 bb
       -0.0004155579 5.00413e-40 -0.00021229564 -0.007531926
000320 b1 64 05 80 ee a2 05 80 54 ea c5 b9 ef 83 94 ba
       -4.95299e-40 -5.17626e-40 -0.00037749356 -0.0011330823
000330 42 5e 05 80 86 59 05 80 e6 6e 05 80 c9 61 05 00
       -4.92991e-40 -4.91292e-40 -4.9896e-40 4.94256e-40
000340 26 77 05 80 cf 58 05 80 06 10 d3 bb 14 ef f6 bb
       -5.0192e-40 -4.91036e-40 -0.006441119 -0.0075358246
000350 7d 61 05 80 bf e3 05 80 64 7c 05 80 f4 2a 9e bb
       -4.9415e-40 -5.40877e-40 -5.038e-40 -0.0048268978
000360 af 61 05 00 69 6f ec bb fa c6 a9 bb 01 8f 05 80
       4.9422e-40 -0.0072154296 -0.0051811906 -5.10478e-40
000370 e5 02 e4 bb 3a 34 52 bb 6f 27 d3 bb b2 90 cf bb
       -0.006958353 -0.0032074586 -0.00644391 -0.0063343877
000380 d5 5a 05 80 8c 59 05 80 1e f5 88 bb 53 23 ed bb
       -4.91762e-40 -4.91301e-40 -0.004179611 -0.007236877
000390 0b 79 05 00 29 67 05 80 2c 4c e5 bb d9 32 15 bb
       5.026e-40 -4.96184e-40 -0.006997606 -0.0022765903
0003a0 3a da 05 80 a0 b8 f1 bb 47 60 e9 bb 85 7b 0d a5
       -5.37462e-40 -0.0073767453 -0.007122073 -1.227165e-16
0003b0 08 be fb ba 6c 06 06 80 e2 6e 05 00 43 d0 e9 bb
       -0.0019206414 -5.53317e-40 4.98955e-40 -0.0071354224
0003c0 90 dd bf bb 67 59 05 80 29 6f 05 80 3d 92 06 00
       -0.0058552697 -4.91249e-40 -4.99054e-40 6.03473e-40
0003d0 6c 62 05 80 fa c8 6b b7 7e 6b 05 00 81 7e 05 00
       -4.94485e-40 -1.4053885e-05 4.97738e-40 5.04559e-40
0003e0 70 e4 de bb 03 71 05 80 a8 77 05 80 99 32 00 bc
       -0.006802134 -4.99718e-40 -5.02102e-40 -0.007824563
0003f0 59 76 05 00 ba 62 05 00 63 ba eb bb 7a 70 05 80
       5.01633e-40 4.94594e-40 -0.00719385 -4.99526e-40

layers.2.bias f4 [128]
000000 74 13 2d 9d 45 75 69 bd 45 1d b8 bc 8d c8 ed bc
       -2.2906416e-21 -0.056996603 -0.022474894 -0.029026294
000010 81 24 71 ba d0 c2 3b bd 3c b7 ba b6 c0 63 f5 b6
       -0.000919886 -0.045840085 -5.5645633e-06 -7.3131814e-06
000020 5e c4 c9 3c eb b5 42 3d 7b 4d 5c bd 4e 14 b9 3a
       0.024629768 0.04753677 -0.05378483 0.0014120431
000030 24 e3 9a 3c b0 51 45 3d dd ea 60 b2 54 7e 94 b3
       0.018907137 0.048173606 -1.3091918e-08 -6.914766e-08
000040 db 25 ab bc 38 53 91 b7 e1 5a 05 80 83 3d a1 bc
       -0.020892074 -1.7324099e-05 -4.91779e-40 -0.019682651
000050 89 06 6d 3d df 5d 05 00 70 00 37 bd 67 60 6d bc
       0.05786756 4.92852e-40 -0.04467815 -0.014488316
000060 c2 09 b3 3b fc 24 80 bd 8b 56 11 bd 33 f8 1d bd
       0.0054638097 -0.06257054 -0.035482924 -0.03856678
000070 78 bb ea b4 e5 d1 06 ba 61 a6 d1 b4 4b 13 cc 3c
       -4.3722298e-07 -0.0005142971 -3.905034e-07 0.024911543
000080 1a 3c 2d bd 44 b7 28 bb 0c 59 c8 b7 c9 57 05 00
       -0.042293645 -0.0025744 -2.3883324e-05 4.90669e-40
000090 e0 57 05 80 d8 7c bd 96 1c 82 89 b9 e2 89 dd bc
       -4.90701e-40 -3.0613384e-25 -0.00026227615 -0.027043287
0000a0 c9 05 af 3b c7 dc 67 bd 6c 5e 05 00 c0 38 93 3b
       0.005341266 -0.056607034 4.9305e-40 0.004492849
0000b0 ec 7f 77 3d 40 6b 9a 90 8f 67 25 b8 57 34 c7 b7
       0.06042473 -6.0907534e-29 -3.9435512e-05 -2.3747021e-05
0000c0 59 7d 04 ba 75 b7 9a ac 79 b9 d5 bb 19 5f 05 80
       -0.00050540786 -4.397311e-12 -0.006522354 -4.93292e-40
0000d0 20 5c 05 80 12 fd 2a 3d fb 5c e2 bc e4 a8 04 bd
       -4.92226e-40 0.041745253 -0.027632227 -0.03238763
0000e0 b3 9a 18 ae 18 1c ab b5 f6 42 c7 bb ed 8e 2f 3d
       -3.46982e-11 -1.2748669e-06 -0.0060809804 0.042860914
0000f0 d7 f7 18 3d c2 35 90 b9 e2 90 94 3c a6 4e 1e b3
       0.037345733 -0.00027505873 0.018135492 -3.6858772e-08
000100 7d 3b 74 bd a5 99 7c 3c 10 c2 02 3c c9 1c f4 3c
       -0.059627045 0.015417491 0.007980838 0.029798882
000110 65 10 83 93 37 4e bd bb 40 ce d5 bb e8 76 42 3d
       -3.3085215e-27 -0.005777146 -0.006524831 0.04747668
000120 48 db d8 bc 9e e7 cc 3c 25 7e ac ad c7 ce 44 bc
       -0.026471749 0.025012787 -1.9610156e-11 -0.01201219
000130 36 cc 27 3c c3 ee 01 bd 74 51 11 b3 0b a7 59 3c
       0.010241559 -0.03172184 -3.3834525e-08 0.013284455
000140 2f ba 24 bd 1f 33 3a 3d a8 09 61 bb 4b 98 54 3c
       -0.04021662 0.04545891 -0.003433803 0.012975763
000150 2e 11 f9 3c a7 80 89 bc 95 2f dc 81 ba 6f 05 80
       0.0304037 -0.016784979 -8.0883513e-38 -4.99257e-40
000160 de 32 1d b9 bc 16 64 3d 34 0f d0 3c 56 2f 35 3d
       -0.00014991636 0.055685744 0.025397874 0.044234596
000170 bb 00 9e b9 0f 1b 16 a0 11 60 05 80 29 f5 09 bc
       -0.00030136653 -1.2714447e-19 -4.9364e-40 -0.008420267
000180 9a 72 41 8f 77 0c 24 b1 3c 1f 16 bd d5 0b cd bb
       -9.537706e-30 -2.3872226e-09 -0.03665088 -0.006257514
000190 f0 96 64 bd ab fa 34 3d bc 5d 05 00 76 be dd 3c
       -0.055808008 0.044184368 4.92803e-40 0.027068358
0001a0 7c 28 88 3c ee e9 2c b4 1f ad 17 bb 96 5e 05 00
       0.016620867 -1.6103851e-07 -0.002314396 4.93109e-40
0001b0 f2 8d fb bc 4c f9 3b bb d7 5c 05 00 34 db 10 b0
       -0.030707333 -0.0028682528 4.92482e-40 -5.26984e-10
0001c0 ef cb 94 3a d4 52 0c 3d de e4 2c 3d 9c 6f f7 3c
       0.0011352281 0.03425868 0.042210452 0.030204587
0001d0 f7 cd 3e 3d d7 93 3e bd e0 81 0b bc ea 5a 05 80
       0.046583142 -0.04652771 -0.008514851 -4.91791e-40
0001e0 b0 5b 05 00 15 0f d0 bc df e1 27 3d 33 5e 05 00
       4.92069e-40 -0.025397817 0.04098689 4.9297e-40
0001f0 5c 08 0d a0 12 04 27 3d 17 5b 95 bc e3 5e ca 3c
       -1.194593e-19 0.040775366 -0.018231912 0.024703449

layers.4.weight f4 [1, 128]
000000 80 49 0d 3c 00 a0 de b8 b9 96 af 3a d4 9e 81 bc
       0.008623481 -0.00010615587 0.0013396359 -0.015822805
000010 d8 32 bb 39 26 79 37 b9 77 b3 2b 3b 68 80 cd b2
       0.000357053 -0.00017497371 0.0026199499 -2.3923533e-08
000020 ca 1d db 3c 4e b9 2e bd 5b 46 50 3d e1 f2 dd 3c
       0.026747603 -0.04265719 0.050848346 0.027093353
000030 10 24 fb 39 9e 52 fb 3c 2b 9f 34 3b 36 e8 5f bb
       0.0004790132 0.030679043 0.0027560692 -0.0034165508
000040 b3 84 1b 3d 0d 2e 97 bb 15 59 05 80 a2 60 a4 3d
       0.03796835 -0.004613644 -4.91134e-40 0.08026244
000050 e5 85 76 3d ee 1c 13 39 a6 44 9d 3d 88 92 1a 3c
       0.060186286 0.0001402979 0.07679109 0.00943435
000060 3d d1 3d 3e 1f 2f df bb 6f a5 19 bd f2 da 34 bd
       0.1853685 -0.006811037 -0.037511285 -0.044154115
000070 64 f5 c3 bb e1 75 57 3c 0b 2c e9 3b 72 e7 6e 3a
       -0.0059801806 0.013150663 0.007115846 0.00091134675
000080 a6 24 3f bd 50 b9 dc 3a f8 aa e0 3b 7e 96 00 b6
       -0.04666581 0.0016839895 0.0068563186 -1.9161084e-06
000090 2c c0 ca 3b f2 b6 80 3b ae f7 57 bd 71 e6 fe 3c
       0.0061874595 0.003928059 -0.05272644 0.031115742
0000a0 6b ef a9 bd 54 84 f1 bc 3e 4f 08 9b dc db a8 3d
       -0.082976185 -0.029482044 -1.1275261e-22 0.0824506
0000b0 dd 7b 41 bd a1 b9 2d 3c 5d 2e 62 bd dc 5d 00 bb
       -0.047237266 0.010603339 -0.055219997 -0.0019587195
0000c0 16 ab c7 3b de 53 29 3c b2 3e b4 bc 81 5c 05 00
       0.006093393 0.010334937 -0.022002552 4.92362e-40
0000d0 0e 73 12 3a f1 44 a9 3b fa 31 50 bd f0 ed 94 3d
       0.00055866025 0.005165689 -0.05082891 0.072719455
0000e0 d4 71 eb a9 98 1b 8f ba 77 50 10 bc 8d 95 89 3d
       -1.04558425e-13 -0.0010918258 -0.008808247 0.06717978
0000f0 6c a8 a0 bc 6c 64 ae b9 a4 07 3c bb 7f 17 0c bb
       -0.01961156 -0.00033262686 -0.0028691078 -0.002137631
000100 1e 21 94 3d 68 d5 5d bc 05 c6 2c bd 1b 5a 99 3d
       0.07232879 -0.01353965 -0.042181034 0.074878894
000110 1f 64 22 3c 8c 80 2f 3c 40 f9 3e bd c4 85 95 3d
       0.009911566 0.0107118 -0.046624422 0.073009044
000120 f7 bc 75 bd ef 23 29 3d d2 b9 17 b9 36 39 72 3c
       -0.059994664 0.041294035 -0.00014469706 0.014784148
000130 b4 00 42 ba 23 bf 86 bb 32 9b f6 bb 45 f1 93 bd
       -0.00074006175 -0.0041121407 -0.007525825 -0.07223753
000140 43 1f 1c 3d 78 f3 f6 3a 20 dc e6 bc df 3c e3 bb
       0.03811575 0.001884087 -0.028181136 -0.0069347466
000150 33 e0 b9 bb 33 f5 72 3a 7a a2 19 3c 1f 5c d0 84
       -0.0056724786 0.0009268105 0.009377116 -4.8985165e-36
000160 24 e3 32 3d 09 d8 71 bc 33 1c f6 bc 76 08 12 3d
       0.04367365 -0.014760979 -0.030042743 0.0356526
000170 10 51 0e 3c 84 2b 23 3c 31 93 10 b1 12 a0 ae 3c
       0.008686319 0.009959105 -2.1038427e-09 0.021316562
000180 a6 b3 2e 3c 7e e0 01 bc 40 25 fe 3c 2a c8 01 bd
       0.010662949 -0.007927058 0.031023622 -0.031685032
000190 6b 2b 0b bd 5b 8a 95 3d 87 fb 0b 3c 0b c4 7c bd
       -0.033976953 0.0730178 0.0085438555 -0.0617104
0001a0 9b c8 d8 3c 14 9c 8e 3b 5f 25 7f 3c e4 58 05 00
       0.026462844 0.004352102 0.015572875 4.91065e-40
0001b0 81 95 94 bd ef f3 7d bd 70 5f 05 00 1e fa 28 3c
       -0.07255078 -0.06200021 4.93414e-40 0.010313539
0001c0 43 d5 87 3b 79 94 a5 b9 45 68 46 3d be 7f 72 bc
       0.004145296 -0.00031581873 0.048439283 -0.014800964
0001d0 70 50 80 3c 92 16 35 bc 78 05 72 bd 90 99 85 39
       0.015663356 -0.011052744 -0.059087247 0.0002548215
0001e0 af 7e 31 31 90 a6 a0 3d d7 61 5e 3d e7 5b 05 80
       2.5828901e-09 0.07844269 0.054292526 -4.92146e-40
0001f0 02 5f 18 b8 5e 6e 1c 3d cd 3d 22 3d 1e 5e 0b bc
       -3.6328107e-05 0.03819119 0.03960972 -0.008506326
