sales_model.pth (torch, 228485 bytes, 5 tensors)

layers.0.weight f4 [256, 90]
00000000: 4f76 09bc 955a 0500 86a1 3cb2 d86c 068c
00000010: 7750 d1a0 7373 0500 1860 0580 ba60 0500
00000020: 036f 0500 7c5f 0580 4a89 0500 7360 0580
00000030: 0663 0500 8c74 0500 cf65 0580 4d5e 0580
00000040: 125a 0580 41b1 0500 326f 0680 9069 0580
00000050: 885c 0500 cbbc 0580 ac75 0500 4157 0580
00000060: 6b65 0580 a55f 0500 2560 0580 797b 0580
00000070: eb61 0500 5b70 0580 db66 0500 bf6d 0500
00000080: 398d 0500 36a3 0580 946d 0580 4a57 0500
00000090: e072 0500 5c66 0580 2ca6 0500 3461 0500
000000a0: 3167 0580 d674 0580 ed72 0500 a87c 0580
000000b0: 8164 0580 4d85 0500 f17e 0500 6e5a 0500
000000c0: b4af 0600 f75a 0580 0a81 0680 b65c 0500
000000d0: b26b 0580 a17e 0500 bd5f 0580 e754 0600
000000e0: 6a7f 0580 9c5d 0500 7c5f 0580 ab82 0580
000000f0: 865d 0500 355d 0500 ef70 0500 5d70 0500
00000100: 285c 0500 e65b 0580 6186 0500 b577 0580
00000110: 3d76 0500 e96b 0580 fac6 0600 ab65 0500
00000120: 725d 0500 3ab2 0580 3c5d 0580 4359 0580
00000130: 8858 0580 e661 0580 ad7b 0580 2963 0580
00000140: 035f 0500 f261 0580 3580 0500 1b5c 0500
00000150: 2d68 0500 5a5d 0580 4671 0580 fe57 0580
00000160: 4e61 0500 c180 0500 1032 24bc edb0 0abd
00000170: 3355 28bc ce6d 403c d8b1 a0bc 0896 03a0
00000180: f5ab ecb2 b681 c120 eb28 f69d 6878 02a6
00000190: f545 11a8 b737 12ad 8caf 12a5 b358 0580
000001a0: 0844 b79a 1c5a 0580 b102 9481 287e 4b03
000001b0: 325e 0580 b357 0500 7bf2 2003 dc5a 0580
000001c0: 7b57 0580 2f0b 12ae be83 0db3 97ad 9f34
000001d0: 6589 8403 4657 18a5 b15d 0500 f95f 9818
000001e0: e6be 3514 7c35 bf87 5dcf 8b31 93cf 0180
000001f0: 3a62 0500 fae9 ce21 945e 0580 0f2e ac9d
00000200: d8ec 0d24 e576 1f01 b340 20a1 6c2c 259e
00000210: f13b 12a4 3d59 0580 94c7 481d d378 d233
00000220: f75c 0500 2800 dd32 44bc 88b2 556a ebae
00000230: 8704 6eb2 eccb 63ae 3b31 0a30 a9f4 54b2
00000240: 4c0c 9c27 078b d236 a634 f828 92f1 9818
00000250: dd3e d538 2f27 64b6 5c65 f539 6cd8 2739
00000260: 1f4e ebb8 f19e bf36 7dc8 0eba 740e 5837
00000270: 3903 82b8 817f 7ab7 ef7b f235 e82e 75ba
00000280: 230e 361b 68db 8337 cc0b d62f d22c 8d32
00000290: 1a5b 8c38 0fb3 ac8f 271e d137 f2b3 1a37
000002a0: 28e0 e234 1b22 41af 7692 19b7 d6a9 8ab8
000002b0: d8e6 91b8 f829 b337 0539 eb36 9e2c c2b8
000002c0: dc86 2bb5 ef09 8fb4 0382 b438 322c 8e29
000002d0: 4b8f ed3c a017 3abd 93c9 d5bd 2cbc a9bc
000002e0: d662 90bd f923 24be e0b9 1abe 435c a1bd
000002f0: 03ff 75bd ed47 20bd 7593 4abd 86e6 d6bd
00000300: 36bd 17be b32e 35bd 1cca d4ba cc4d cdbc
00000310: 9820 e83c cca1 6ebd 0693 823d 3f43 8a3d
00000320: 8752 d7bd 0a76 27bd 48b9 b0bd 0021 c73e
00000330: 6427 d23e 4b54 cb3e 3c8c b23c 631d 813d
00000340: 969c a33b 0b62 313d 6757 1cbe a4ee bdbc
00000350: b238 e03e 292a ce3d 2a97 c0bc cb9e 673d
00000360: b927 45bd c8db a0bd 62c4 993d a5a8 f33d
00000370: 1246 84bd 6b98 01bd 5c12 e8bc 6487 6d3d
00000380: dc66 07be edea b53e a5be 29bd fc10 78be
00000390: e8bf 62be 3931 1fbd ec19 07be ab78 39be
000003a0: ba7f 4dbe c1c1 0ebe 7533 3abd e190 2f3f
000003b0: 2e5b 813e 4c97 0c3e 8b73 ea3e 5c43 3b3e
000003c0: 057d 4dbf 9687 bf3e 3952 23bf cc73 d73d
000003d0: e084 29bf 25f8 07bf cf5e 13bf 39cc bebe
000003e0: 6cc1 d8be 4d57 41bf 98e8 95bd b46c 813e
000003f0: eb31 0e3e 172b 3a3e 92d8 ad3e da12 a5bd
-0.008390023 4.91672e-40 -1.0979766e-08 -1.0355738e-31 -3.5459224e-19 5.00593e-40 -4.9365e-40 4.93876e-40
4.99001e-40 -4.93431e-40 5.08428e-40 -4.93777e-40 4.947e-40 5.00987e-40 -4.957e-40 -4.93006e-40
-4.91489e-40 5.22764e-40 -5.90902e-40 -4.97046e-40 4.92371e-40 -5.26904e-40 5.0139e-40 -4.90478e-40
-4.9556e-40 4.93488e-40 -4.93668e-40 -5.03471e-40 4.94304e-40 -4.99483e-40 4.96075e-40 4.98547e-40
5.09839e-40 -5.17727e-40 -4.98487e-40 4.90491e-40 5.00387e-40 -4.95897e-40 5.18789e-40 4.94047e-40
-4.96196e-40 -5.0109e-40 5.00405e-40 -5.03896e-40 -4.95231e-40 5.06997e-40 5.04715e-40 4.91618e-40
6.14043e-40 -4.9181e-40 -5.97303e-40 4.92436e-40 -4.97811e-40 5.04603e-40 -4.93522e-40 5.8147e-40
-5.04885e-40 4.92758e-40 -4.93431e-40 -5.06052e-40 4.92727e-40 4.92614e-40 4.9969e-40 4.99486e-40
4.92237e-40 -4.92144e-40 5.07384e-40 -5.0212e-40 5.01593e-40 -4.97888e-40 6.22392e-40 4.95649e-40
4.927e-40 -5.23113e-40 -4.92624e-40 -4.91199e-40 -4.90937e-40 -4.94297e-40 -5.03544e-40 -4.9475e-40
4.93261e-40 -4.94314e-40 5.0517e-40 4.92219e-40 4.96549e-40 -4.92666e-40 -4.99812e-40 -4.90743e-40
4.94084e-40 5.05366e-40 -0.010021701 -0.033860136 -0.010274219 0.0117449295 -0.019616053 -1.1145773e-19
-2.7552213e-08 3.2781307e-19 -6.5157966e-21 -4.526599e-16 -8.0642864e-15 -8.31151e-12 -1.2722959e-16 -4.90997e-40
-7.5796936e-23 -4.91503e-40 -5.4370476e-38 5.980116e-37 -4.92968e-40 4.90638e-40 4.729813e-37 -4.91772e-40
-4.9056e-40 -3.320649e-11 -3.294894e-08 2.974236e-07 7.789807e-37 -1.3213468e-16 4.92788e-40 3.9387987e-24
9.175813e-27 -2.8769921e-34 4.069007e-09 -1.66299e-40 4.94415e-40 1.4021036e-18 -4.93106e-40 -4.5575644e-21
3.0775116e-17 2.928899e-38 -5.4295737e-19 -8.7442135e-21 -3.1709476e-17 -4.9119e-40 2.657296e-21 9.800865e-08
4.92527e-40 2.5727857e-08 -1.5918097e-08 -1.0705451e-10 -1.3854453e-08 -5.1794943e-11 5.027407e-10 -1.2395653e-08
4.331203e-15 6.2746726e-06 2.7556364e-14 3.9535003e-24 0.00010168341 -3.3997455e-06 0.0004680556 0.00016006985
-0.000112202244 5.710747e-06 -0.0005446745 1.2877968e-05 -6.199483e-05 -1.4930848e-05 1.8066474e-06 -0.0009352998
1.5059255e-22 1.5718586e-05 3.8934755e-10 1.6434942e-08 6.692689e-05 -1.702948e-29 2.4928782e-05 9.221012e-06
4.2258876e-07 -1.7565364e-10 -9.153611e-06 -6.611987e-05 -6.957137e-05 2.1358006e-05 7.0101837e-06 -9.2589515e-05
-6.389871e-07 -2.6643053e-07 8.6072854e-05 6.3137334e-14 0.028998991 -0.045432687 -0.10438838 -0.02071961
-0.070501015 -0.16029347 -0.15109968 -0.07878926 -0.06005765 -0.039131094 -0.049457032 -0.104931876
-0.14818272 -0.04423399 -0.001623455 -0.02506151 0.028335854 -0.05825977 0.06375699 0.067511074
-0.10513788 -0.040884055 -0.086290896 0.38892365 0.41045678 0.39712748 0.021795385 0.06304433
0.0049930317 0.04330639 -0.15267716 -0.023185082 0.43793255 0.10066635 -0.02350958 0.05654792
-0.048133586 -0.0785442 0.0750816 0.11897401 -0.06458677 -0.031639498 -0.028329067 0.057990447
-0.13222831 0.35530797 -0.04144158 -0.24225229 -0.22143519 -0.0388653 -0.13193482 -0.18112437
-0.20068255 -0.13941099 -0.04545923 0.6858044 0.25264877 0.1372959 0.45791277 0.18287414
-0.8026889 0.3740813 -0.63797337 0.105201334 -0.66218376 -0.53113014 -0.5756654 -0.37265185
-0.4233507 -0.75523835 -0.07319754 0.25278246 0.1388623 0.181805 0.33954293 -0.08060236

layers.0.bias f4 [256]
00000000: 6658 0580 96ae f3ba d75d ca3d 3926 4cbd
00000010: 575d 0580 866b ac3d 7982 3eb0 c67d 70bd
00000020: e09f 3ebc 1feb c9bd 70c2 1a3d 2c30 f0bd
00000030: 0540 0a3d 904d 33bd 5f7e 8abc b68c 2ebd
00000040: c969 0eb8 df52 ff96 31d5 0300 5127 dbba
00000050: 5f27 353d a2dc acba 0916 a7bc c608 c03d
00000060: 0765 fa3c 6dce 3732 f8fb ce3c 2e7c 983d
00000070: f506 c399 4eb7 2101 786c 7cbd c6b5 8fbb
00000080: b5a8 0500 16ec d03d 641d 70bd 8e2a baba
00000090: 5b62 0580 a14c 4836 52b7 0500 0e71 0fba
000000a0: 255a 873d 28ae f6b7 7711 02bd c183 c3bd
000000b0: 305c babd 365e 0500 a1c4 cebc 59e6 863d
000000c0: 7c14 4e3d 717f 603d 55a1 0580 6344 1a31
000000d0: cab3 0abb 1cd6 1ebd b1cd 1fbd c26a e7bd
000000e0: 5aa8 f2bd c518 393d bfec 873d 7993 e4bd
000000f0: 2ffa 9b3d e34c dfbc 2c6b 0500 7e07 dfba
00000100: f87c b0bd c581 a53d 0c58 283c 62c8 243d
00000110: 6d5f 153d 5557 0500 e67a bcbd bc5b d8bc
00000120: 675c f23c 6f89 c23a 29f6 e53c 0125 0bbd
00000130: 1231 423c f857 0500 f7ea 80bc bb35 46bd
00000140: ac11 ad3d 948e 0580 a5a0 5dbd c182 c5bd
00000150: 4307 93bd cdea 00bd 66b6 c5bb 9f91 babd
00000160: bd8a 7fbd 1614 1ea1 3b3c 473d 46e4 b73d
00000170: 5ba2 873d 83ec afa4 61b4 953d 1141 c3bc
00000180: 76cb 34ba a558 0580 6279 a23d 8c46 0a3d
00000190: 3206 d8bc 923e 83bd 7abe f5b9 aa64 f7bc
000001a0: a85c 0500 d1ce 3fbd 7e8f 26bb bafd c7bd
000001b0: c029 e7bb 0e2a d33b 9957 14a4 89d5 1e3d
000001c0: 60b3 a8ba 0782 eabd ae24 ba3c c5ed 993c
000001d0: fe76 d192 8212 00bb 6d07 fc3c 3a8b f5bc
000001e0: bd80 c5bd aa9b b7bd ee9e 8fbc c461 d5bd
000001f0: a661 a0bd 1416 8c3d df4c b83d 8afa cfbd
00000200: 85e1 25bd 2f7b 0580 fcca 803d 0eb0 0500
00000210: 90c9 4ebb 82d7 7fbd 4e79 f33c fb48 7bba
00000220: 3847 bb3d c080 8ebb 25dd 693d 5aa5 88bd
00000230: 0274 493d 580b 74b3 c945 703d 2163 91a7
00000240: 671d 493d 069a 0580 5ce2 5ebc 1b14 221f
00000250: a8c4 163d 70dd af3d 2cab 110f 4736 5bbd
00000260: d7eb 5fbb 1d48 96bd e65d 2938 2899 1b3c
00000270: adf8 133d 33b5 88bd 2bf9 72bc 9932 a6bd
00000280: a766 093d 6da8 363d 500b d0bd 03ea 893d
00000290: 858f 9cb5 6c6a 0500 0a6a 08b8 e3b7 0eb7
000002a0: 46b4 31b9 a0bc 463d 2f28 a219 6918 30bd
000002b0: e32a 743d e1b1 5f3d f361 0500 eefe bfbb
000002c0: 57ea 153d 6e2d 86bd f258 0500 5513 fc2a
000002d0: dd6e 6f3a b659 0580 6859 0580 2557 d7bd
000002e0: 9223 a83c 3d1f a13d 885b 0500 6783 17bd
000002f0: 58e9 1bb6 0230 3ebc 83d8 64bc 6768 e0bd
00000300: cb5f 0500 ad29 bb19 e577 b2bd 1872 933d
00000310: de25 fcbc 5d0b 2d3c 5360 0580 406d 0580
00000320: e552 873c 2b79 0580 28be 76b9 d25f f2bc
00000330: 2d38 2fbd 4dde 5eba 3e8a c8b7 dd9d b33c
00000340: 607c b92f 76ea 1abb dc68 0580 ec2a eeba
00000350: 3d83 4c3d 2717 cbbc 7c9e 9dbc 8745 18bd
00000360: 2a5a 0580 daba e1bc e862 0580 a32f f63b
00000370: a357 0500 697f 95b9 3319 a5bc 98d0 cc9f
00000380: e1de 543d 75d7 15bd 688e 5fbd a02d eabd
00000390: b456 c9bd cf2b 863d 6ddc 54bd c3d3 2dbb
000003a0: cf27 423d 8456 bbba 924c a33d f873 46bd
000003b0: d84f 8e3d fd67 0580 a7d5 e3bd cf55 583d
000003c0: 6a3b adbd e25b b4bc 13c7 dabb 95b8 40bb
000003d0: 34d7 be3d c15f d8bd 650a 2338 ca70 013d
000003e0: 1374 0500 c186 90ba 3b34 9e3d 64ba f73c
000003f0: 8d65 23b9 76c7 823d 08cd 87bb ed51 f9bb
-4.90889e-40 -0.0018591459 0.0988118 -0.04984114 -4.92662e-40 0.08418946 -6.930701e-10 -0.058713697
-0.011634797 -0.09859299 0.037783086 -0.11727938 0.03375246 -0.04377514 -0.016905962 -0.04261466
-3.395396e-05 -4.124977e-25 3.51985e-40 -0.0016720091 0.044227 -0.0013188312 -0.02039625 0.093766734
0.030565752 1.0698938e-08 0.025266632 0.074455604 -2.0165337e-23 2.9702544e-38 -0.06162688 -0.0043856828
5.19698e-40 0.1020128 -0.05862178 -0.0014203356 -4.94461e-40 2.9846926e-06 5.2494e-40 -0.00054718636
0.066089906 -2.9406583e-05 -0.031754937 -0.095466144 -0.090996146 4.92974e-40 -0.025240244 0.06586904
0.050312504 0.054809038 -5.17053e-40 2.2448823e-09 -0.0021164292 -0.03877841 -0.039014522 -0.11299659
-0.11848517 0.045189638 0.066369526 -0.11160941 0.07616078 -0.027258342 4.97624e-40 -0.0017015783
-0.08617586 0.08081392 0.010274898 0.040230162 0.03646796 4.90506e-40 -0.092031285 -0.02641093
0.029585076 0.0014841984 0.02807148 -0.033970837 0.01185252 4.90735e-40 -0.01573704 -0.048391085
0.08450636 -5.10325e-40 -0.05410828 -0.0964408 -0.071791194 -0.031473923 -0.0060337065 -0.09109806
-0.06238817 -5.3559066e-19 0.048641425 0.089790866 0.06622764 -7.629482e-17 0.07309795 -0.023834737
-0.0006896773 -4.90977e-40 0.07933308 0.033758685 -0.026370142 -0.06408419 -0.00046871958 -0.030199368
4.92416e-40 -0.046828095 -0.0025415118 -0.097651914 -0.0070545375 0.0064442223 -3.2166582e-17 0.03877786
-0.0012870841 -0.11450582 0.022722568 0.018790135 -1.3219088e-27 -0.0019542282 0.03076526 -0.029973615
-0.096436955 -0.089652374 -0.017531838 -0.10419038 -0.07831125 0.068401486 0.08999037 -0.101552084
-0.040498275 -5.03367e-40 0.06288716 5.22334e-40 -0.0031553246 -0.062461384 0.029720929 -0.0009585765
0.09144443 -0.0043488443 0.057095665 -0.06672163 0.0491829 -5.6820994e-08 0.058660302 -4.035306e-15
0.049100306 -5.1443e-40 -0.013603773 3.4321465e-20 0.03680864 0.08587158 7.1820185e-30 -0.05351856
-0.003416767 -0.07337973 4.038019e-05 0.0094969645 0.036125828 -0.06675186 -0.014829914 -0.081151195
0.033545163 0.044594217 -0.10158408 0.06734087 -1.1664675e-06 4.97354e-40 -3.2523683e-05 -8.506674e-06
-0.00016947192 0.04851973 1.6766637e-23 -0.04299203 0.059611212 0.054612998 4.94315e-40 -0.0058592474
0.036600437 -0.06551634 4.91085e-40 4.4777607e-13 0.00091336464 -4.9136e-40 -4.9125e-40 -0.105146684
0.020524774 0.07867286 4.92013e-40 -0.03699055 -2.3232624e-06 -0.011608126 -0.013967636 -0.10957413
4.93542e-40 1.935218e-23 -0.08714274 0.07199496 -0.030779775 0.010561791 -4.93732e-40 -4.98369e-40
0.01651902 -5.02644e-40 -0.00023531227 -0.029586706 -0.042778183 -0.00085017533 -2.3906232e-05 0.021925861
3.3739678e-10 -0.0023638285 -4.96794e-40 -0.0018170751 0.049929846 -0.024791313 -0.01924061 -0.03717568
-4.91522e-40 -0.027554918 -4.94658e-40 0.007513003 4.90616e-40 -0.00028514423 -0.020153617 -8.674245e-20
0.051970366 -0.03658243 -0.05457917 -0.114344835 -0.098309904 0.065513246 -0.051968027 -0.0026523925
0.047401246 -0.0014292751 0.07973589 -0.04845044 0.06948823 -4.96481e-40 -0.11124735 0.05281621
-0.08458598 -0.02201647 -0.0066765635 -0.0029406894 0.093183905 -0.105651386 3.887191e-05 0.031601705
5.00817e-40 -0.0011026488 0.07724806 0.030240245 -0.00015582722 0.063857004 -0.0041443147 -0.0076086433

layers.2.weight f4 [128, 256]
00000000: fe59 0580 792f f33b 9b13 b6bb d33a 6a3c
00000010: 2a3a 26a9 550e 08bd 3cf8 14bc 0c76 6bbd
00000020: 02cc 5e3c 8b43 343d e8fc 94be f594 2fbd
00000030: 2379 773b c53e 143c 35be b1bb b3c3 cbbb
00000040: 5156 5cbc 3090 833b b281 0500 b1a0 9a3a
00000050: 524c 5fbd 543e 1fbb 211b 9bbb fcda 0f3d
00000060: 38d2 4f3c b78b b2bb e5b4 bc3c 9f0b 80bd
00000070: 3b17 613b 4b73 fd85 60b1 0a3d 4c29 15bc
00000080: 565d 0580 669d 6ebd 1459 1c3d 0c13 563c
00000090: 95a7 5638 b33f 2c1f b678 0580 ff16 743b
000000a0: 072d 3d3d 537d 393c af84 603e 384c 883c
000000b0: 846e bb3c 3e2c 3f19 f653 333d 8ded 67bd
000000c0: 8467 aabc 2011 f83c 0474 0580 0051 153c
000000d0: 3312 91bb 4232 933c c86f 5cbd 66af 1cbd
000000e0: 4bf2 fdbc ca01 59be 36be d23b ef5f 083d
000000f0: 114e 0f3d 7765 043b 605b 0580 9faa 3c3c
00000100: ba07 29bd a8d2 00bd 33ce c3bc 5a61 a5bb
00000110: b404 c2bb 004b 1d97 b447 b73c 78e3 ae3b
00000120: e68b b23c 1e95 65bd af51 bb3c 6b69 7cbd
00000130: f460 93bc 99bf 049f 24e1 a43c 2480 32bd
00000140: bcc6 2f3c 295b 0580 d819 52bb 1fce 413d
00000150: 1497 29bd 9cd6 eb3c 3180 253c 12dd 6bbd
00000160: 6061 5ebd 4b2e 8535 86c2 e9bc 3e26 bfbc
00000170: 9723 7dbd 48ef 34bc 4a89 4b3d e399 993c
00000180: ba56 56bd 4462 0500 7056 7c3d f8af 1dbc
00000190: 2995 263d 72f5 073d 7d66 5e3e d16d 12bc
000001a0: d55a 0580 a23e 833d e245 a4bb 660a 3d3d
000001b0: 35a9 1b3c 4f30 78bd 5f44 c711 9ed4 a5bb
000001c0: 41f3 bb3a 3808 323d 9fae a03d 361a 98bc
000001d0: ea59 0580 ecc2 44bc 8665 373d 6528 4dba
000001e0: ef4f 9bbc a812 2b3d f937 e4bc d969 eebb
000001f0: 64ac 4a3d 71df 35bd c3fa 70bc 7113 a13c
00000200: 1b48 9f3c ee75 0500 90ee 5cbd 8d76 0600
00000210: d8ed 2c3c 93a0 1ebd e5b9 df3c adf3 bf3a
00000220: 09f0 0fbd f7a9 683c 3f04 193d 9c79 8b3b
00000230: 48bf 053d 493a 52bc c511 cabc d276 f73c
00000240: d913 c9bc 9959 0500 8f42 313d 4b4f 78b6
00000250: 27c4 733d 03fd 8a3c 3c8f be3a c6a2 8a3c
00000260: eec5 5f3c c78a c3bc 8ad3 9839 585e b3bc
00000270: f20a dbbc 3178 263b 2f99 e7bc 4662 1a3d
00000280: 9540 22bc 9ad3 123b 56db a73c 23ac 323d
00000290: c29e 143a 475a 0500 eedd b738 f068 63bc
000002a0: e3d0 3d3b 757f 7f3b 13e7 a52d a2f2 96bc
000002b0: f15c e33c 95c4 2f3d 9e5e 0500 62dc 473c
000002c0: f75a 6fbd 1d79 623b 168b 0500 2c66 e43c
000002d0: a211 cebc f465 0500 3682 0500 adf4 833b
000002e0: 90ed 203c 19f1 1cbe 6fa6 d0ad b5fc f6bb
000002f0: 77bf b0ba b912 a3bd 15d9 70bc 8250 6abc
00000300: 1f59 0580 8f67 c337 429f 35bc 749a fdbe
00000310: 2b2c fd3c 8115 823c 915c 0500 19a3 2e84
00000320: 33a7 ca3d f22a 70af 0f94 81bc b16c 7a3b
00000330: 6299 70bd dfed bc3b 81bb a3bb 07ef 183d
00000340: 7587 f1bb e23f 403c 7f20 acb2 6c7f b73b
00000350: 0cd5 0abc cbf1 ab3c b84b 1bbd 3612 15bc
00000360: 5e6d 0580 99bb 9938 d85a 0580 4d6e 6c3d
00000370: 98ff 943b 260a 2ebc 6669 303b 4ee4 37bc
00000380: 8983 133d 6b7d 26bc 1a72 4dbd 807e 8abb
00000390: 098c 7fbc 1a2f 05bc 4851 443e c783 683b
000003a0: b176 5ebd bf25 b3bb 31f3 34bd 7571 fd3c
000003b0: cf0b ea3c 9467 0580 f102 3b3d e785 663d
000003c0: 21b3 05bb e601 e43c e261 a93c 0f65 febb
000003d0: c00b 443d c440 553c 2107 00bb d9b3 693d
000003e0: c379 0500 3961 01bc 0033 643d 559a 2bbd
000003f0: 6a16 3abc 0567 2bbd 9a4d 27bb 8e3f e0b8
-4.9146e-40 0.0074214307 -0.0055565364 0.014296251 -3.6909854e-14 -0.033216793 -0.009092387 -0.057485625
0.013598444 0.044009726 -0.29099202 -0.042866666 0.0037761412 0.009048169 -0.005424286 -0.0062183975
-0.013448314 0.004014991 5.05703e-40 0.0011797157 -0.054516144 -0.0024298625 -0.0047334586 0.03512095
0.012684397 -0.005448784 0.023035476 -0.062522165 0.0034346122 -2.3834358e-35 0.033860564 -0.009104084
-4.9266e-40 -0.058255576 0.03817089 0.013066065 5.117765e-05 3.6475107e-20 -5.0248e-40 0.0037245152
0.04618552 0.0113213835 0.21925615 0.016637906 0.022879846 9.883403e-24 0.043781243 -0.05662303
-0.020801313 0.030281603 -5.00796e-40 0.00911355 -0.0044272183 0.0179683 -0.05381754 -0.03825321
-0.030999323 -0.21192089 0.0064313663 0.033294614 0.03498656 0.002020208 -4.91957e-40 0.011515289
-0.041267134 -0.031450897 -0.023902034 -0.0050470056 -0.005920971 -5.08241e-25 0.022373058 0.005337175
0.021795224 -0.056050412 0.022866098 -0.061623972 -0.017990567 -2.8110573e-20 0.020126887 -0.043579236
0.010728534 -4.9188e-40 -0.003205886 0.047315713 -0.041403845 0.028788857 0.010101364 -0.057583876
-0.054292083 9.922745e-07 -0.028535139 -0.023333665 -0.06180152 -0.011043377 0.049691476 0.018750137
-0.052328803 4.94429e-40 0.06160587 -0.009624474 0.040669594 0.03319306 0.21718784 -0.008937315
-4.91762e-40 0.06408431 -0.0050132135 0.046152495 0.009500791 -0.060592946 3.14388e-28 -0.0050607463
0.0014339463 0.04346487 0.07845806 -0.018567186 -4.91433e-40 -0.012009364 0.044774555 -0.00078261486
-0.018959014 0.04176584 -0.027858721 -0.0072758016 0.04948081 -0.044402543 -0.014708224 0.01966259
0.019443562 5.01483e-40 -0.05393845 5.93541e-40 0.010554753 -0.038727354 0.027310321 0.0014644765
-0.035141025 0.014200679 0.037357565 0.0042564403 0.032653123 -0.012831279 -0.024666676 0.030208025
-0.024545597 4.91319e-40 0.043276366 -3.7001034e-06 0.059513237 0.016966349 0.0014538537 0.01692332
0.01365803 -0.023869885 0.00029149308 -0.021895573 -0.026738618 0.002540123 -0.028271286 0.037691377
-0.009903093 0.0022403956 0.02049033 0.043621194 0.0005669409 4.91563e-40 8.7674576e-05 -0.0138799995
0.0028963618 0.0038985882 1.8860946e-11 -0.018426243 0.027754279 0.042912085 4.9312e-40 0.012198539
-0.05843636 0.0034557052 5.09072e-40 0.02788075 -0.025154892 4.95751e-40 5.05888e-40 0.0040269704
0.009822264 -0.15326346 -2.3720774e-11 -0.0075374492 -0.0013484795 -0.079625554 -0.014700194 -0.014301421
-4.91148e-40 2.3294035e-05 -0.011085333 -0.495319 0.03090485 0.015879394 4.92384e-40 -2.0528492e-36
0.09895172 -2.184313e-10 -0.01581767 0.0038211758 -0.058740027 0.005765661 -0.0049967174 0.03733733
-0.007370884 0.011733981 -2.0038213e-08 0.0055999067 -0.008473646 0.02098932 -0.037914008 -0.00909858
-4.98411e-40 7.330551e-05 -4.91766e-40 0.05772238 0.0045470707 -0.010622537 0.002691829 -0.011223866
0.036014114 -0.010161738 -0.050157644 -0.0042265058 -0.015597352 -0.008128906 0.19171631 0.0035478936
-0.05431241 -0.005467146 -0.044177238 0.03093789 0.028570084 -4.96334e-40 0.045657102 0.056280043
-0.0020400959 0.027832936 0.020676557 -0.007763512 0.04786277 0.01301593 -0.00195355 0.05705628
5.02857e-40 -0.007896715 0.0557127 -0.04189523 -0.011357883 -0.041846294 -0.0025528432 -0.0001069299

layers.2.bias f4 [128]
00000000: 6ca4 5ebd ab8a cb3c 9b2e b83c 14d2 c23c
00000010: fb23 233d dd2a 2dbc 74a2 133d 4c80 dbbc
00000020: 53d5 1d3d 2b2e 0ebc 6e23 9a3b e87a 843c
00000030: da37 b9bc 03ed 803c e28d 883c c454 753d
00000040: 8959 0580 3ad1 cd3c 5b5b 0500 5992 e8b7
00000050: 546e 0580 0cc3 d0a1 9a73 533d 73a7 f93c
00000060: 5b55 37bd ec5d 0500 5d7c 373d b266 2eb0
00000070: 2872 db3c 2861 0500 a98f b13c a6d2 0bbd
00000080: 875f 0500 fe73 11bb 12ff a5b4 9e5b 0500
00000090: 41e5 14bc e85e 2a3d ae5a 0500 a39b 07bd
000000a0: 3f45 e53c 43e5 48bd bce0 933c 4ff2 2a3c
000000b0: 5e54 133d a287 50bd 0638 a928 b05b 0500
000000c0: d7ba 85bc af62 0500 1ea6 533d 8227 d6bc
000000d0: 3a76 583d 57af 2ebc 9aaa 3bbc dcd9 9eb4
000000e0: d03d 46ba db79 283d 8760 0500 0759 0580
000000f0: b4d3 51bd 87e3 bda2 8a99 273c e9cd fcbc
00000100: 5963 59bd 9c28 47bd d7e8 54ba cb98 a4b9
00000110: 006c a7ba 4011 643d 3f59 19b6 f661 0500
00000120: 812a 6fbb e459 0500 ea1a 003c 7c33 e3b8
00000130: dce1 1ebd fa4c c2b8 c956 2ebb 5df4 b53c
00000140: e86d 4e3c 3b08 2bbd 912e 69bd 9688 4fbb
00000150: fab0 3e3d 4720 d63c ac33 c83c cfd4 693c
00000160: d703 57b8 340a 84bc ebd8 c0b9 003c 0dbc
00000170: 384f 5abd f420 cbbc 9b1e 1fb5 8cca a3b7
00000180: 239b 09bd 0953 77ba 0d4b 45bd b157 0500
00000190: 75c7 73bd a25b 0500 8716 1e3a 1b91 8eb5
000001a0: 76e0 33ba ec03 19bd 6f4d 1ebc 8d17 4f3c
000001b0: 9f2c a93a 17c5 01bd 1d53 1cbc b25a 72bc
000001c0: 72d0 f1bc ffc6 a03c 4b61 0500 2257 123d
000001d0: 726f af3a 06af 98bc d63c 1cbb cfa5 43ba
000001e0: da67 2231 41a2 73ba 1a2c 30bd 956f c5b6
000001f0: a96e 9ab5 039b 12ad 56cd 093c 02ab b1bb
-0.054356024 0.024846395 0.02248316 0.023781814 0.039829236 -0.010569301 0.0360436 -0.026794575
0.03853352 -0.0086779995 0.0047039306 0.016171888 -0.02260964 0.015738016 0.016669217 0.059895292
-4.91297e-40 0.025124181 4.9195e-40 -2.7724704e-05 -4.98756e-40 -1.4146257e-18 0.051623918 0.030475354
-0.044759136 4.9287e-40 0.044796336 -6.344677e-10 0.026787832 4.9403e-40 0.021674948 -0.034136437
4.93446e-40 -0.002219438 -3.0919233e-07 4.92044e-40 -0.0090878615 0.041594416 4.91707e-40 -0.03310741
0.02798712 -0.049046766 0.018051498 0.010433747 0.03596913 -0.0509106 1.8787065e-14 4.92069e-40
-0.016324444 4.94578e-40 0.051672094 -0.026141886 0.052847125 -0.010661921 -0.011454249 -2.9588307e-07
-0.00075623114 0.041131835 4.93805e-40 -4.91114e-40 -0.051227286 -5.1469457e-18 0.010229478 -0.030859904
-0.05307326 -0.048622712 -0.0008121854 -0.00031394357 -0.0012773275 0.055680513 -2.2850725e-06 4.94319e-40
-0.003649384 4.91424e-40 0.007818917 -0.00010833793 -0.038789615 -9.264979e-05 -0.002660202 0.022211248
0.012599446 -0.041755896 -0.056929175 -0.0031667105 0.046555497 0.026138438 0.024438702 0.014271929
-5.126357e-05 -0.016118146 -0.0003678271 -0.008620262 -0.053298205 -0.024795987 -5.927665e-07 -1.9525432e-05
-0.033595216 -0.00094346754 -0.048167277 4.90635e-40 -0.05951639 4.92049e-40 0.00060305785 -1.0622056e-06
-0.00068617554 -0.037357256 -0.009662016 0.012639892 0.0012906975 -0.0316821 -0.0095413 -0.014792131
-0.02951834 0.019626139 4.9408e-40 0.035727628 0.0013384654 -0.018638145 -0.0023839972 -0.0007463367
2.3633135e-09 -0.0009293892 -0.04301081 -5.8840474e-06 -1.15061e-06 -8.333559e-12 0.008410772 -0.005421997

layers.4.weight f4 [1, 128]
00000000: 0961 2c3d 35e6 56bd 1541 cabc 547c 99bd
00000010: 23b0 783d 0a4a 84bd 09f1 533d 9802 973d
00000020: a9b0 8a3c c230 983a 778e 3a3d 3dfd c2bb
00000030: 65fa 91bc be27 183d dd52 7abd 0b68 823d
00000040: 8e57 0580 155e a53c aa5b 0580 6a96 45a2
00000050: 285e 0580 10fa 08bc adb0 9dbd 9f39 64bd
00000060: bf70 4f3d 7ece bbbb 2fd8 9dbd f3dd d1bb
00000070: c2a2 c0bb c186 3e3a e15b 803d 8896 34bd
00000080: cdb2 22a1 873a 7b3d b234 2bbc 8a43 8db7
00000090: ad59 38bb c5c5 23bc 4b4a 1cbb c0c9 373b
000000a0: a17a 743d 002e 1f3d 1d80 4d3d 061e 633d
000000b0: 23ba 893d 0e3f 6bbd b0d8 dcbb 7f04 f6a4
000000c0: a31d 623d 5bb9 20bb 7b87 4abd 6c54 2dbd
000000d0: a658 9e3d e74b a03d 02d5 ff3b 68d0 fa3b
000000e0: 9409 23bb 2889 ddbc 8f61 983b 404d aeb9
000000f0: bc07 ae3d 7529 213c 06bc 833d 5573 97bb
00000100: 9ecd 153c d08f e13c c9be b7bc e206 ba3a
00000110: 6407 30ba 1578 8fbd 0799 1e3b 3661 0500
00000120: 7c5d 7abd 30e2 07bb 5ab5 9cbb acfd 913b
00000130: a491 b039 7d39 89bb ea41 9cbd a307 a2bd
00000140: d772 87bd 346b 20bc f77e a93d dafa 09bc
00000150: 9df2 5a3d 5e86 c03c a662 963d 30f0 ab3c
00000160: b23d dcbb 283b 94bd 4d1a 023c 4d01 b2bb
00000170: fb88 c9bc 097f a0bd 1bcf 0fbc 60a1 473b
00000180: b24b 79bd f39f 9eba 1213 f6bb 6305 1d3c
00000190: 5c10 a7bd 8855 2935 4f1e b13d eab8 2ebc
000001a0: 3c69 7738 5f38 393d 8649 273b 9cad 953d
000001b0: 2daf 3dbc f84c aebc 53b8 2f3d 44ed 6fbd
000001c0: cd11 9bbc 6d2f aa3d c361 0500 0588 9ebd
000001d0: 738c 463d c3ab c33d b83c dfbb b2ba 16ba
000001e0: 77ed a299 863f 2ebb 4905 bf3c c7b0 d4bb
000001f0: c45c c5bb 9409 293c 550e f93c f95e 733b
0.042084727 -0.052465636 -0.024689237 -0.07494417 0.060714852 -0.06459434 0.05174354 0.073735416
0.016929941 0.0011611211 0.04554602 -0.0059505985 -0.017819593 0.037147276 -0.06111418 0.06367501
-4.90586e-40 0.020186463 -4.9206e-40 -2.6778107e-18 -4.92954e-40 -0.008360401 -0.07699714 -0.055719014
0.050644632 -0.005731403 -0.077072494 -0.0064046322 -0.0058787772 0.00072680047 0.062675245 -0.04408887
-5.5124376e-19 0.061335113 -0.010449575 -1.683996e-05 -0.0028129623 -0.009995882 -0.0023847993 0.0028043836
0.05968726 0.03886223 0.050171006 0.055448554 0.06724956 -0.05743318 -0.0067396984 -1.0669311e-16
0.055204045 -0.0024524543 -0.04944561 -0.04231684 0.07731752 0.07826977 0.007807375 0.0076542385
-0.0024877535 -0.02704294 0.0046503018 -0.00033245422 0.08497569 0.009836544 0.06432347 -0.004621903
0.009143261 0.027534395 -0.02242984 0.0014192725 -0.00067149685 -0.07005326 0.0024200098 4.9405e-40
-0.06112431 -0.0020734183 -0.004782361 0.004455289 0.00033677847 -0.0041877613 -0.076297596 -0.07911613
-0.06613701 -0.009791184 0.0827617 -0.008421624 0.05345403 0.023501571 0.073430344 0.020988554
-0.006721222 -0.07237846 0.007940841 -0.005432284 -0.02460145 -0.0783673 -0.008777405 0.0030461177
-0.060863204 -0.0012102112 -0.0075095976 0.009583804 -0.08157417 6.308187e-07 0.08648359 -0.010664204
5.8987396e-05 0.045219775 0.0025526 0.07308504 -0.01157741 -0.021276936 0.042900395 -0.058575884
-0.018929387 0.08309827 4.94248e-40 -0.077407874 0.048473787 0.09554245 -0.006812658 -0.00057498657
-1.6846319e-23 -0.0026588156 0.02331795 -0.0064908 -0.0060230214 0.010317225 0.030402342 0.0037135466
