sales_model.pth (torch, 228485 bytes, 5 tensors)

layers.0.weight f4 [256, 90]
00000000: e6d7 b63d 69e1 463b 6aeb 9e3d cb15 b93d
00000010: a99f 3ebc e99e bd3d b006 30bc cbea 313d
00000020: 3ef5 5d3d 0d1c 2bbc 60e9 32bd 0b3e ccbd
00000030: 3411 223d a809 a13d 3b39 8d3d 298f 96bd
00000040: 01ec 103d a84d 103d a880 853d aaa0 df3c
00000050: 73b7 a43d c85f bbbd fefb 753c ab6c a63d
00000060: 7cf0 ff3c 3f1a c63d 634e ad3d 4354 c2bd
00000070: 01e3 203d 1180 973c d5fc eabc 735a 413d
00000080: 50d0 79bd a7b3 c239 2139 f73c 9481 c6bc
00000090: e4bc a6bc 8aab 1bbd a77c 0cbc 12ac 2f3c
000000a0: 7c23 75bd c95c 05bd 8ae8 58bd 17cc 24bd
000000b0: 8661 8bbb e1db 4c3d 892f babc ac28 b8bb
000000c0: 4f87 353d 5c05 7dbc e783 503d 9d7a a3bd
000000d0: 900e a13c 0886 cfbc 195e 9c3d f598 0a3e
000000e0: 879f 11be c40f 1a3d cb00 423e 544a a23d
000000f0: a4cd cabe b248 4a3e 7227 6abe b986 3e3c
00000100: 7429 9cbe f92f 96be 6837 dbbd afe7 5fbe
00000110: 8da6 d6bd 20c8 07bf c193 2ebe c600 2f3e
00000120: 24e8 f7bd 42a6 ed3b 4395 583e cad4 b2bd
00000130: 822d 563d e63e 123e 5649 c53a dd5a aebd
00000140: b3a1 193e cd6a 46be af4f 49be 1fe4 b73d
00000150: e00f 08bd e186 9abe a04f a5bc 6c32 64be
00000160: fb44 1c3e 70e2 acbd 4b53 b53d b415 7dbd
00000170: 2825 9cbd 5465 5e3d 155b 23bd 697b bebc
00000180: 075a 693d fd11 123d 8e04 c7bd 78b8 273d
00000190: 2952 373d b1ed 9abd 820e 4abd 7d2f d6bd
000001a0: 6837 9dbd e9ed 53bd cea5 09bd 957b 9bbc
000001b0: 02de 603d 8fd4 5fbc d7b2 b83b e8a8 16bd
000001c0: 751e c4bd a382 2b3d 0f46 e1bd 5d66 7dbd
000001d0: 344b 64bd 6f64 8f3d a620 6c3d 3a22 6fbd
000001e0: ee47 2ebd 531a b3bd f155 b33c 1900 00bd
000001f0: c1fd 9bbd e290 87bd 0354 7b3d 03c2 2abd
00000200: 0719 d1bd 708f b63d 96a9 92bc e220 f93c
00000210: 5a62 82bd 6d81 c53c 6f69 923d b330 e5bd
00000220: dcb8 c4bd 1405 ccbb e99b dc3c 2b5a 65bd
00000230: 34a2 583d d50c 35bd edaf 6fbd 0b55 b63a
00000240: c083 b4bd ce4b 84be b722 5a3d fe64 f03b
00000250: b3f2 51be 258c e6bd fdda 943e be52 a0be
00000260: e868 4e3e 4c98 823d 6858 be3e 80b2 933e
00000270: bcc8 7c3d 8232 5a3e c3a0 803d 2e42 bf3e
00000280: 8330 903d ed87 34bd 0c20 013e 51c0 1bbd
00000290: 4b29 0cbe 2bc6 2b3e d22c b2bd 9981 16be
000002a0: fb5f 413d 199c 9d3d c7f8 e2bd 55c0 473e
000002b0: f6ec b43d 5185 14be a9be aebd b115 303e
000002c0: a32a 8e3d b303 f83d 9e79 ffbd ac4d 1a3d
000002d0: c1b8 a4bb 33ac 25bb faaa fbbb c216 a6bb
000002e0: 696a 80bc ed0b e5b4 f08a a2b9 a6b4 54af
000002f0: 6297 e4ad 2987 2cb5 096c 38b7 c0dd 00b7
00000300: 217d 70b3 739e faa4 c10a 86a9 e801 08ab
00000310: c248 98ac c453 48ad 0fc3 52ab 709c d8b0
00000320: 6a55 1aae 5d08 9ea3 099f afad bb2d 1439
00000330: e4a4 193a e967 c73a 63f8 0cac da32 8eb1
00000340: 6201 bcaa ce18 cb2b c521 08b3 e3c6 eab2
00000350: ec1a 5639 8b90 5f2b cfa4 0c2e 47d1 9633
00000360: 6df1 1eb0 059a 4cb0 0d6a 882e 1ad0 c62e
00000370: ace9 89b3 0564 cfaf 6c25 afac a96e 88b1
00000380: a829 ceac 6046 363a 5d54 3a29 7aa5 9db9
00000390: baba 46b8 f0b2 9eb6 255f 8cb8 2a51 49b7
000003a0: 922f 18b8 ceab b3b6 5fcf 65b5 c9a8 753b
000003b0: 39d2 1f33 3aec 832b 5400 1f3c dd61 2d3b
000003c0: f136 49bc bda0 183c 583c 16bc 221d af3a
000003d0: 2310 31bc 15ac 12bc 8fbf 94bb 9985 50bb
000003e0: d0e6 c1ba 3331 46bc 5999 66af 9363 d53b
000003f0: b146 9e36 df39 c238 c4a6 073c 396e ecac
0.08927898 0.0030346757 0.077597454 0.0903736 -0.011634746 0.09258825 -0.010743782 0.043436807
0.05418896 -0.0104437 -0.043679595 -0.09972771 0.039567187 0.0786317 0.068956815 -0.073515244
0.03538132 0.03523031 0.0651868 0.02729829 0.08042803 -0.09149128 0.015013693 0.081261955
0.031242602 0.09672975 0.08462217 -0.09488728 0.039278988 0.018493684 -0.028685013 0.0472054
-0.060989678 0.00037136415 0.030178608 -0.02423171 -0.020353742 -0.03800539 -0.008574641 0.010722177
-0.059848294 -0.03255919 -0.05295614 -0.040233698 -0.004253569 0.05001438 -0.022727745 -0.005620083
0.044318493 -0.015443172 0.050907042 -0.07982371 0.019660264 -0.025332466 0.07635135 0.13534911
-0.14221011 0.03761269 0.18945615 0.07924333 -0.39610016 0.19754294 -0.2286661 0.0116288
-0.30500376 -0.29333475 -0.10703927 -0.21865724 -0.10480986 -0.5303974 -0.17048551 0.17090139
-0.12104824 0.0072524855 0.21150689 -0.087319925 0.052289493 0.14281806 0.0015051763 -0.085134245
0.1500309 -0.19376679 -0.19659303 0.089790575 -0.033218265 -0.3018103 -0.02017957 -0.2228486
0.15260689 -0.08441627 0.088537775 -0.061788276 -0.076242745 0.054295853 -0.039881784 -0.023252206
0.056970622 0.035661686 -0.097176656 0.040947407 0.04475609 -0.07564867 -0.049330242 -0.104582764
-0.076765835 -0.05174056 -0.03360539 -0.018979827 0.054899223 -0.013661518 0.0056365537 -0.036782175
-0.09576122 0.04187263 -0.10999691 -0.0618652 -0.05573578 0.07001578 0.057648323 -0.05838225
-0.042549066 -0.08745255 0.021891566 -0.031250093 -0.07616759 -0.06619431 0.061359417 -0.04168893
-0.10209852 0.08914077 -0.01790313 0.030411188 -0.06366415 0.024109567 0.07149016 -0.11190929
-0.09605572 -0.0062261913 0.026929813 -0.055994194 0.052889064 -0.04420169 -0.058517385 0.0013910843
-0.08814192 -0.25839084 0.053255763 0.007336258 -0.20502739 -0.11257199 0.29073325 -0.31313127
0.20157206 0.063767046 0.37176824 0.28847122 0.061714873 0.2130833 0.06280663 0.3735518
0.07040503 -0.04407494 0.12609881 -0.038025204 -0.13687627 0.16774814 -0.08699955 -0.14697875
0.047210675 0.07695789 -0.11082607 0.19506963 0.08834259 -0.14503981 -0.08532459 0.17195775
0.06941726 0.121100806 -0.124743685 0.03767173 -0.005026907 -0.002527964 -0.007680294 -0.005068631
-0.01567574 -4.266325e-07 -0.00031002564 -1.9345467e-10 -2.5987826e-11 -6.4271677e-07 -1.09924085e-05 -7.681025e-06
-5.599316e-08 -1.0868864e-16 -5.952661e-14 -4.831955e-13 -4.3281776e-12 -1.13872835e-11 -7.4877685e-13 -1.5760531e-09
-3.509141e-11 -1.7133936e-17 -1.9965822e-11 0.00014131416 0.00058610574 0.0015213463 -2.003308e-12 -4.138525e-09
-3.3396468e-13 1.4430902e-12 -3.169568e-08 -2.7331629e-08 0.0002041866 7.942611e-13 3.1978694e-11 7.0229866e-08
-5.782315e-10 -7.443364e-10 6.2034024e-11 9.040964e-11 -6.422064e-08 -3.772415e-10 -4.977954e-12 -3.9707015e-09
-5.859497e-12 0.0006953236 4.137347e-14 -0.00030068663 -4.738078e-05 -4.729598e-06 -6.693442e-05 -1.1999431e-05
-3.6283927e-05 -5.3546164e-06 -8.561091e-07 0.0037484637 3.721127e-08 9.373676e-13 0.009704668 0.0026456036
-0.012281165 0.009315667 -0.0091696605 0.0013360123 -0.01080707 -0.00895216 -0.004539437 -0.0031817912
-0.0014793519 -0.012096691 -2.0972858e-10 0.0065121143 4.7169965e-06 9.26142e-05 0.008279506 -6.7197606e-12

layers.0.bias f4 [256]
00000000: fea1 62bd b041 a4bd 4108 7dbb c74a 563d
00000010: 92ad e8bb 2dcc 0c3b 5928 1c3d 5b67 22a2
00000020: 895c 0500 6b83 0580 6c3c 9fbc b5d0 8e3c
00000030: 016a 983d 3792 0ebc 0117 7bbc e549 ca3c
00000040: 215d e1bd 2aa1 b3bd 56dd 4cbd adc4 25bb
00000050: 62eb 0dbd 0d72 76bc dc79 c83c dade b5bd
00000060: f2db 99bd 39ed d0bd e51c bcbb 56b0 613d
00000070: b849 dbbd 1f96 91bd 9bb1 3cbb 5265 48bd
00000080: 5f4b 76ab 73db b1bc a6d6 9abb c59d 0500
00000090: fdf5 dbbd b10a f0bc 491d d2bd a7f6 bbba
000000a0: 1850 383c 8c8b c8bb 6222 0ebd cde1 a697
000000b0: ebf6 a1ba c7ec afbb 5cce 6bbd 7a29 c8bb
000000c0: 6279 e1a3 79a4 de3c d02f 35bb c950 dcba
000000d0: 51fc 88bc fbf0 ae93 3c0c 3fbb ec8b 0500
000000e0: 3adf 543d 4773 0580 cdde 6fbc e67c 0580
000000f0: 68c9 7e3c 100f 2fbb 224a b23d 3bf1 c7b1
00000100: 575e 123d ca17 a53d 7cf9 8cbb a6f9 c13d
00000110: 9072 473d 82f8 f0bb 3c2a 5839 334f a3bd
00000120: 57e6 8f3b 4e5b bb3c a2e9 b53c 74f7 dea9
00000130: a6a1 0580 b41a 7f3d 5eb1 943d 166a 94bd
00000140: b55c 0580 3bb1 0580 c8ac 323c b463 96bb
00000150: 3855 cabd a726 0680 7a7b c33d 4622 fc93
00000160: 4b09 88ba b1b4 09bd b29c b03d 4467 20bd
00000170: ae79 5d3d 7caa febc e88b 463c ac86 0ab3
00000180: 3529 65bd b9fc 0c3d 0539 4abd 5ad0 a0bd
00000190: 690e 12b3 32dd 7fbd f2a9 6fbb 3e49 30bc
000001a0: 012e 78bd ef09 b03d 8ab4 db3b 5117 2fbd
000001b0: e0d9 2bbd 6b4e 8cbd a48b 0500 19cb f3bb
000001c0: 6366 cdba c9ff e03c 42b2 42bb 3d2c 95bb
000001d0: fbba 87bb 3e06 41bd bdaa 683d 5bb8 bfbd
000001e0: 3998 0580 fb53 063d 20c4 d6bc 8205 31bd
000001f0: 2ae0 4eb9 0fba 53a9 9ccb 4bbd 227e ca3d
00000200: 4de5 42bd 535f 0580 2ff9 a1bd b183 0600
00000210: 245d 0580 75c8 1739 c06a b2bc 6232 c8bc
00000220: 6cf5 603c eb6e 25a6 c09a 6fbc d84c f13c
00000230: aa9a 6f3d 81fd 453d d33c bcbd 906d 0500
00000240: 9aac 67bb e83b 8d3c 3ce2 b93b a2d8 4a3d
00000250: 4292 683d 879b 6cb7 ff63 0500 4b65 3136
00000260: f029 b03d b367 2a3c f041 eebc 86e4 823d
00000270: e55c 8a3d e871 8abc 1119 0680 a22e f7bb
00000280: 44a4 513d 3e07 6bbd 6981 b9b9 8381 2d3d
00000290: 31e3 bebd 4d75 0580 4931 80bd dc6b 97bd
000002a0: 793c 0fbb 9853 8b3d ea8d 653d 03f1 eabd
000002b0: 4975 9e3d 2359 0580 8b80 903a 4d52 27b4
000002c0: 9c95 aabd 884e f4bb 1477 6a3d 9ca0 0580
000002d0: 47f6 40bc bc95 82bd 7ac9 a3bd 6e2d e7bc
000002e0: efcb 18bc 6636 9d3c 72c9 d43c 0a98 ebbd
000002f0: fc93 cc37 8688 8bbd f7d6 b8bd 215a 0500
00000300: 8f74 0500 a958 a3bd 99a4 f6bc cf90 07b8
00000310: eca1 6723 5e66 3cbd 6d0c 7f3d 9114 53bd
00000320: 71dc d73c 8d69 3f3b 543a b6bd 025b 0500
00000330: 2dcb 073d e474 1d3d a482 fb3c 230d 19bc
00000340: a271 4fbd 720a 2c3d a66a 0500 2b0f c93d
00000350: fa6a 0500 0c12 49b9 7076 8bbb 1bce 0600
00000360: dd5a 13bd 2300 d23d 3527 9aaa efd1 f3bc
00000370: 9765 89ba 4a94 893d cedd 6b9a 70f6 a23d
00000380: ea5f 0500 8dcc 85bb b56c bd3d 8756 39bc
00000390: c782 a53d a085 a1b9 1849 70bd 835b e5bc
000003a0: 3d5d 0500 976e e5bc 55d5 03b7 9f31 aebc
000003b0: cdc8 4abc 1cab 0580 b65c 0500 aa6f 0500
000003c0: bdec acbc 2ff9 c7b0 1db6 203d dfc0 88bd
000003d0: f26e 36bd 1e3d 1faa b57b 0580 a008 95bb
000003e0: 5e8a aabd c11d 44bd 5d9f f23b e766 70bc
000003f0: efd4 3e3d 5ad4 1d3d 8b6a 0580 46ab f13c
-0.05533027 -0.080203414 -0.0038609656 0.052317407 -0.0071007693 0.0021484003 0.038124416 -2.200981e-18
4.92373e-40 -5.06321e-40 -0.019437991 0.017433504 0.07442094 -0.0087018525 -0.015325309 0.024693439
-0.11004091 -0.08770974 -0.05001577 -0.002529423 -0.034648307 -0.01504184 0.02447217 -0.08880396
-0.07512654 -0.10201497 -0.005740749 0.055099808 -0.1070742 -0.071087115 -0.0028792385 -0.04892475
-8.7501355e-13 -0.021711087 -0.004725295 5.15775e-40 -0.10740278 -0.029301973 -0.10259492 -0.0014340476
0.011249565 -0.006120151 -0.03470076 -1.0784499e-24 -0.0012356912 -0.005368802 -0.057569847 -0.00610846
-2.4445957e-17 0.027178036 -0.0027646907 -0.0016808744 -0.016721876 -4.41614e-27 -0.002915158 5.09372e-40
0.051970698 -5.00531e-40 -0.014640522 -5.03983e-40 0.015550949 -0.0026711859 0.08705546 -5.819087e-09
0.0357345 0.08061178 -0.004302202 0.09471445 0.04869324 -0.007353843 0.00020615099 -0.079740904
0.0043914723 0.022870686 0.022206131 -9.901707e-14 -5.17166e-40 0.062281325 0.072603926 -0.07246797
-4.92434e-40 -5.22756e-40 0.010905452 -0.0045895223 -0.098795354 -5.64879e-40 0.09545036 -6.364754e-27
-0.0010378746 -0.033619586 0.08623637 -0.03916098 0.05407112 -0.031087153 0.012118317 -3.2253112e-08
-0.0559475 0.034420703 -0.049370784 -0.0785224 -3.400638e-08 -0.062466808 -0.00365698 -0.01075965
-0.060590748 0.08595645 0.0067048715 -0.042746846 -0.04195583 -0.068508945 5.09271e-40 -0.0074399826
-0.0015670772 0.027465718 -0.00297083 -0.0045523928 -0.004142163 -0.047125094 0.056803454 -0.09361335
-5.13785e-40 0.032794934 -0.026216567 -0.043218143 -0.00019729199 -4.7012792e-14 -0.049754724 0.09887339
-0.04758196 -4.93373e-40 -0.07908856 5.98255e-40 -4.9259e-40 0.00014475158 -0.021779418 -0.024438087
0.013730388 -5.7396197e-16 -0.014624298 0.029455587 0.05849711 0.048337463 -0.09191289 4.98481e-40
-0.0035350681 0.01724048 0.005672721 0.049523003 0.056780107 -1.4102908e-05 4.9505e-40 2.6434016e-06
0.08601749 0.0104007 -0.029084176 0.06391244 0.067559995 -0.016900018 -5.60005e-40 -0.007543401
0.051182047 -0.057379954 -0.00035382368 0.04235984 -0.09320677 -5.01257e-40 -0.062594004 -0.073936194
-0.0021856113 0.068030536 0.056043543 -0.114717506 0.07737214 -4.91154e-40 0.0011024637 -1.5583028e-07
-0.08329317 -0.0074556507 0.057242468 -5.16793e-40 -0.011777467 -0.06376216 -0.07997413 -0.028219905
-0.009325965 0.019190978 0.025974963 -0.115036085 2.4387606e-05 -0.06813149 -0.09025376 4.9151e-40
5.00991e-40 -0.07975895 -0.030107783 -3.232137e-05 1.2556823e-17 -0.045996062 0.06226771 -0.051533286
0.026350232 0.00292072 -0.08897844 4.91825e-40 0.033152748 0.038441554 0.030701943 -0.009341511
-0.050645478 0.04200215 4.97436e-40 0.09817346 4.97553e-40 -0.00019175577 -0.004256062 6.2495e-40
-0.035975326 0.10253932 -2.73831e-13 -0.02976319 -0.0010482547 0.06717737 -4.8776033e-23 0.079571605
4.93585e-40 -0.0040832222 0.0924925 -0.011312134 0.080815844 -0.0003080787 -0.058663458 -0.027997738
4.92625e-40 -0.028006835 -7.857879e-06 -0.021263896 -0.012376976 -5.2056e-40 4.92436e-40 4.99235e-40
-0.02110898 -1.4549978e-09 0.039236177 -0.06677412 -0.0445394 -1.4143241e-13 -5.03555e-40 -0.0045481473
-0.08327173 -0.047879938 0.0074042515 -0.014672971 0.046589788 0.038532592 -4.97398e-40 0.029500615

layers.2.weight f4 [128, 256]
00000000: ac68 91bb 9143 15bc 51bb afbb 0258 ff3d
00000010: 420d c73c 64aa a33e f591 233d 649a 503c
00000020: 763c 6536 e276 0580 76ca 9bbb 6cde ebbc
00000030: 35a2 2a3d 9a94 7b3c f7e8 17bd 8d65 a53c
00000040: f324 8a3c af7e 90bc 598e 5c3d 6e37 bb3a
00000050: 83ec cfbc 3a87 4c04 fb83 45bd 0105 cfba
00000060: ac84 11bd f975 a63c 2aea 363c 929a 003d
00000070: de32 76bb 05e0 403d e753 3cbc b962 55bd
00000080: a24e 4cbc a69e 2c3d 9559 edba 8225 0600
00000090: fea4 62bd 057f 62bb db34 85bc 99af ebbb
000000a0: f826 d3bd 6294 533c 453e 3a3c 7b57 b2b9
000000b0: ac66 ffbc c381 5b3c 0892 92bc 8d99 153d
000000c0: ec51 8bb4 43c1 b2bc b7b5 6dbb 92a3 043c
000000d0: 53d0 3bbd 33fb 13bd bf30 3fb9 d752 519a
000000e0: c4e3 73bd 7f60 0580 63cd 02b9 d8d4 383a
000000f0: f44f 293d d799 013d cc78 873b 5a6e 753c
00000100: 5d89 193e 6c7d c0bc d2cb 7b3c e972 e1bd
00000110: 5d82 143d 8f93 6b3b aa91 8e39 4ec8 da3c
00000120: 037c 41bc c4d5 a6bc 8871 693c b825 853c
00000130: d652 37ba 1c70 4f3d e5a0 123d 23de 18ba
00000140: c799 8e39 4ca8 b5bc 111b 28bd 27b0 53bc
00000150: 18d4 6a3c a05b 0500 08c2 4f3d 0f7f b63b
00000160: 6c5a a3bc 1f00 313e 7537 edbb d16b 733d
00000170: 2b85 f5bc 12b4 c93c 271c 833c b839 41b9
00000180: 163f 1cbd 8b6b d9bc 9e81 42bd 00f3 75bc
00000190: dcba 86b3 950e e9bb 079c 2fbd 39cd fd3b
000001a0: 19b0 c83c 495c 13bd 254c 183d 83c2 5e3d
000001b0: fe4c f13c 513b 483c ee7c 0580 7bff 8133
000001c0: bc9b 30bd dede 8f3c 16a3 40bc 1448 663b
000001d0: 3d3f 27bd f382 2fbc 3bda 033d aa39 3cbc
000001e0: a7c1 0500 8060 5c3d 0567 253d 41bb 0ebd
000001f0: 3bee 943c 8a99 d7bb 05ef efbc c949 d2b9
00000200: 264a 97be 5437 0d18 9b29 5bbd 00f1 1c2e
00000210: 8681 0500 098f 1e3e 0024 4dbc ac95 b43d
00000220: 601a 2a3d 6d2c 20b1 505e 7dbd c9a9 f5bc
00000230: cbfb 9e3e 0c43 b9bb 8361 dfba 08aa f1b6
00000240: 6c52 15b3 2a0c ce3c 1ae5 413d b29b 1e3d
00000250: 3722 d1bc 2852 603c 9e6f 0580 157e fd3a
00000260: ec1c 253d 1634 db3c e6de 993c 9b5c ea3b
00000270: f70d 623d 9ebe 263c f165 0500 2b2a 573c
00000280: 2990 073c b603 f53b d1f7 43bc 086b a5bc
00000290: 7837 c5bd fa5a 0580 1f5f 023a 91ec bd3c
000002a0: c45f 393c 614b 9fbc faf2 703d 8230 893c
000002b0: 1c6d d43c c79a 320c 12bb 5d3a 4ae0 21bd
000002c0: 9065 c13c c86c 733c 8937 9fbb 9d5d 0500
000002d0: fbd8 743c 0771 cb3c 9151 90bc a391 a53b
000002e0: ceae fabb 8eb5 0ebd 1333 16bd 0cb9 70bd
000002f0: b23b dfbb 2071 56bd 4318 acbb 7de1 0500
00000300: db57 0500 a1f1 1bbd 3f3b fcbc 4e05 99b9
00000310: 2230 923b 1e14 413d 7ea4 543d 7124 083a
00000320: 4085 12bd a9e8 463d 5318 393d 8314 1dbc
00000330: ab19 6ebc 6fe8 403c 7835 3abe 0bd4 513c
00000340: 6039 12bd 6b3c 653d 3889 0500 bcef 4bbd
00000350: 9e7d 41bc e525 95bc cecf 8cbc 3b5d 0500
00000360: dde8 693b 5256 b43c 5088 93b2 e726 133c
00000370: 41ed a3bc 79eb e6bc 2d4c 53bc 2e4a f33c
00000380: e9f4 aa10 06ed 833b e4ec 723d f5ad ea3c
00000390: 31ff 6bbd 2a2d 38bc 185d 823c d8cf 033d
000003a0: 9a60 0580 80ca a03d 2676 e5b7 dc95 fabb
000003b0: 2ce7 b5bb 8574 0500 d18e 0580 0382 bf37
000003c0: 5fd2 61bb 6ee9 ba3b 9aba 35bc 9ce1 ad3b
000003d0: d023 0b3c 105c 743a 145c 0500 fb6f 393c
000003e0: eba8 56bd 1521 8eba fc9e 67bd 8454 95bc
000003f0: 6821 1b3d f766 483d 8618 939f 669c 6abe
-0.0044375267 -0.009110347 -0.005362906 0.12467958 0.024298314 0.31965935 0.039934117 0.012732122
3.4158852e-06 -5.01825e-40 -0.00475436 -0.028792582 0.0416586 0.015355254 -0.037087407 0.020190025
0.016863322 -0.017638532 0.05384669 0.0014283487 -0.025381332 2.4042178e-36 -0.04822157 -0.0015794338
-0.035526916 0.020319926 0.0111642275 0.03139741 -0.003756694 0.04708864 -0.011494613 -0.052096102
-0.012469919 0.042143486 -0.0018108363 5.64468e-40 -0.05533313 -0.0034560573 -0.016260555 -0.0071925637
-0.10310167 0.012913795 0.011367385 -0.00034015984 -0.031176887 0.013397637 -0.017891899 0.03652339
-2.5950374e-07 -0.02182067 -0.003627164 0.008095639 -0.04585297 -0.036128234 -0.00018233339 -4.3287104e-23
-0.059543386 -4.93794e-40 -0.00012474279 0.0007050759 0.041336015 0.031640854 0.004134273 0.014979923
0.14993806 -0.023497306 0.015368419 -0.110082455 0.036257137 0.0035946106 0.0002719288 0.02670684
-0.011809352 -0.020365603 0.014248259 0.016253337 -0.00069932395 0.050644025 0.035797972 -0.0005831441
0.00027198924 -0.022174977 -0.041041438 -0.012920416 0.014332794 4.92046e-40 0.050722152 0.005569346
-0.019940577 0.17285202 -0.007239277 0.059428994 -0.029970726 0.024621997 0.016004635 -0.00018427416
-0.0381461 -0.026540538 -0.047486894 -0.015011549 -6.273851e-08 -0.007112334 -0.04287341 0.0077454117
0.024498032 -0.03597668 0.037181992 0.05438472 0.029455658 0.012221173 -5.03994e-40 6.053502e-08
-0.04311727 0.017562326 -0.011757633 0.0035138177 -0.040831793 -0.010712373 0.032190543 -0.011488358
5.28647e-40 0.053802967 0.04038145 -0.034846548 0.018180003 -0.0065795826 -0.029288778 -0.00040109296
-0.29548758 1.8251756e-24 -0.053506475 3.5684344e-11 5.05642e-40 0.15484251 -0.01252079 0.0881761
0.04152906 -2.3308317e-09 -0.06185752 -0.029988186 0.31051478 -0.0056537446 -0.001704261 -7.202154e-06
-3.4766728e-08 0.025152285 0.04733763 0.0387227 -0.02552901 0.013691463 -4.99218e-40 0.0019339944
0.040310785 0.026758235 0.018783044 0.0071521527 0.0551891 0.010177283 4.95747e-40 0.013132612
0.008274117 0.007477249 -0.0119609395 -0.020192638 -0.096297204 -4.91814e-40 0.00049732806 0.023184093
0.011314336 -0.019445123 0.05882547 0.016746763 0.025930934 1.3759198e-31 0.00084583566 -0.03952054
0.023608 0.014857478 -0.004858915 4.9276e-40 0.01494431 0.02483417 -0.017617019 0.0050527616
-0.007650233 -0.034841113 -0.036669802 -0.058770224 -0.006812536 -0.05235398 -0.0052519157 5.40067e-40
4.90694e-40 -0.038072232 -0.03078997 -0.00029186386 0.0044613043 0.047138326 0.051914684 0.00051934185
-0.03577161 0.048561726 0.045189213 -0.00958741 -0.014532487 0.0117741665 -0.18184459 0.012806903
-0.03569925 0.055965822 5.08402e-40 -0.049789175 -0.011809735 -0.018206546 -0.017188933 4.92622e-40
0.0035691776 0.022013817 -1.717504e-08 0.008981443 -0.020010592 -0.028188454 -0.01289658 0.029698458
6.743052e-29 0.004026058 0.059307948 0.028647402 -0.057616416 -0.011241237 0.015913531 0.032180637
-4.93832e-40 0.07851124 -2.7353944e-05 -0.007647259 -0.0055512395 5.00977e-40 -5.1041e-40 2.2829516e-05
-0.0034457666 0.0057040965 -0.011091853 0.0053064357 0.008492425 0.000932158 4.92209e-40 0.011318202
-0.052407186 -0.00108436 -0.056548104 -0.018228777 0.037873656 0.04892632 -6.229749e-20 -0.22911224

layers.2.bias f4 [128]
00000000: 21a4 0c3c aee5 543c 3864 0500 e6f6 de3b
00000010: e99f 2ebd 882e 8cba b6cc 6dbd 6575 873c
00000020: ad53 8cbc aa70 32bd 72ce ae3c c597 74b9
00000030: 0178 1dbd 4050 7c3d 5257 bb9e 7730 853b
00000040: 1b94 0500 85b6 4a3d ddc0 6aba d441 bfbb
00000050: 039f 10bc 7315 dbbc b520 593d 0994 2d3d
00000060: 5295 303d 7e5d 473d 9d35 75bd 73c4 4b3d
00000070: 2066 0580 4df4 48bd 0130 5f3d 133b 1abb
00000080: 03c6 13bd bfd7 4cbd c6e2 c6b3 5085 998d
00000090: 1df1 553c 59ce 02bb c261 24b7 9f95 9e3c
000000a0: e5d2 a3b4 cae3 0abd 4cad 58bd 0495 80bc
000000b0: f6e7 d8b0 c102 b3bb 7d95 30ba 3ad7 842b
000000c0: 4d57 0500 46b7 11bd 63b4 73bd f27f 633d
000000d0: 26ae 1da2 0f57 bcbb 4d1b 5d3d eb4a a5bc
000000e0: ba2c 423b 00be 63bc d5e5 6cbb cf6c 0500
000000f0: ad26 033c 2563 483a b10d d53a 2b62 5abd
00000100: b46b 0600 5b0e 1fb6 a357 0580 3946 87bc
00000110: dbe6 0580 880e 513d 4c03 673d 4567 0580
00000120: ee40 dab7 4671 0500 e2af f0af b7d4 8abd
00000130: c04e b0b5 5879 23bb 4373 9cbb 9f3a c0bb
00000140: b8ee 0ebc 27f5 45ba e4b4 0600 5834 3bbd
00000150: dd76 d6bb c369 c9bc 73a5 a0bb 85ca 09bc
00000160: d9ad 5696 3916 d03c 6d8a 73bb a3bb ad3c
00000170: fa6b 1b88 4e40 89a7 eec9 b8bc b0d4 21ba
00000180: 88aa 53bd ab60 0580 bb92 71b5 ddcd 00bd
00000190: ca70 b43c 9c44 5b3d 3666 e6ba 3cc5 04bd
000001a0: 127d 51bd a3e7 48bd d9c8 ff3c 1a32 ecba
000001b0: 99f4 83bb 5407 f1bc 888a e63c 6652 603d
000001c0: b52c 16bd 69b1 323d a436 d93c db35 07bd
000001d0: 0185 dcb7 7b28 fcbb 878c 0580 ebed 8999
000001e0: 6a15 2ebd 36a1 b5bb d943 7abd 934b 8fbb
000001f0: 895d 44bd 7b0f deb8 e59c c838 a98f 0580
0.008584053 0.012994213 4.95129e-40 0.006804335 -0.04263297 -0.001069502 -0.058056556 0.01653547
-0.017129743 -0.043564476 0.021338675 -0.00023326192 -0.038444523 0.06159997 -1.983551e-20 0.0040646154
5.12308e-40 0.04949047 -0.00089551305 -0.0058367047 -0.008826974 -0.026743626 0.053009707 0.042377505
0.043111153 0.048673145 -0.059865583 0.049747895 -4.95813e-40 -0.04906111 0.05448914 -0.0023533746
-0.03607751 -0.05001044 -9.261343e-08 -9.461447e-31 0.013057974 -0.0019959419 -9.797923e-06 0.019358454
-3.0514562e-07 -0.033908643 -0.052899644 -0.015696056 -1.5781996e-09 -0.005462975 -0.00067361427 9.438901e-13
4.90495e-40 -0.035575174 -0.059498202 0.05554194 -2.1369661e-18 -0.005747683 0.053981114 -0.020177325
0.002962871 -0.01390028 -0.0036147733 4.9821e-40 0.0080048265 0.0007644168 0.0016254691 -0.053316277
5.8965e-40 -2.3701202e-06 -4.90616e-40 -0.016512977 -5.41993e-40 0.05103925 0.05639963 -4.96224e-40
-2.601786e-05 4.99812e-40 -4.3780718e-10 -0.067788534 -1.3135941e-06 -0.0024944153 -0.0047744825 -0.005866363
-0.008723907 -0.0007551484 6.15904e-40 -0.045704216 -0.0065449313 -0.024586564 -0.0049025356 -0.008410101
-1.7341639e-25 0.025401222 -0.0037161366 0.021207636 -4.677054e-34 -3.8094858e-15 -0.022557225 -0.00061733555
-0.051676303 -4.93855e-40 -8.9993017e-07 -0.031446327 0.022026438 0.053532228 -0.0017578069 -0.03241466
-0.051144667 -0.04904903 0.031223701 -0.0018020303 -0.004026961 -0.02942244 0.028142229 0.05476608
-0.03666373 0.043626223 0.026515312 -0.033010345 -2.6287978e-05 -0.0076952553 -5.09589e-40 -1.4261562e-23
-0.04250089 -0.0055428995 -0.06109986 -0.004373023 -0.047940765 -0.000105886684 9.565967e-05 -5.10713e-40

layers.4.weight f4 [1, 128]
00000000: 1529 a8bd 42a5 973d abb2 06b9 0362 97bb
00000010: 286d 9bbb eee0 a43b ca87 6abd e1e4 51ba
00000020: 458d 87bc 74e0 9c3d 8e0a 8d3d 63b5 2d3c
00000030: 002a dc3c baa3 673d af15 313c 175e 883d
00000040: 7ad8 41bc 432d e3bc f2c4 1ebc 3367 dcbb
00000050: da2c 08bb 36c6 d13c 4d51 413d 235f 54bc
00000060: e21b 483c 6254 8d3d 7ab3 aa3c 875f 173b
00000070: c0ba 8a39 3a45 a6bd 6776 8d3d 667a c730
00000080: 57dd 8a3d 2e1d dcbc 86be 84bc 8272 14bc
00000090: f72b 0b3d a05d 273c 755d 0580 63b8 babb
000000a0: 2977 0500 d2ad 19bd 8729 5ebb 59b6 b43c
000000b0: ac22 11bc e9ea e539 5dc9 b83a babf 833c
000000c0: 70fe 083b d14c 463b a09e 4b3d fdf8 ac3b
000000d0: 8d81 013c f8b6 2fbc bb36 66bd dcdf 5a3b
000000e0: df33 d13c 292d 9fbd d035 24bc c604 ac3b
000000f0: b41d 58bd 3f64 88bb a12e 0bbd 2f47 883c
00000100: ec74 323b e380 2fbc 101f f4b7 ec8f 813d
00000110: 6e70 0580 6774 9bbd 4e52 a93d 6171 8934
00000120: b44a 05b7 451a bfbb 7c0d abbb c68d a4bc
00000130: 1eef 963b 0d53 29bc a256 ed3c cecd b93a
00000140: 0299 b9bc 16d8 0dba 35dd d039 f719 063d
00000150: 32d4 463d a54c 1e3b 5fd5 453c 204a da3c
00000160: e5e5 76bb 8c85 8cbd a305 173c 96ef 23bd
00000170: f010 023c f651 c1bb e24e ddba 8592 d7bb
00000180: 0497 f9bb 2263 0500 a7bd 1c3c eb76 dfbc
00000190: 2176 a1bc fa67 993c 2f1e a83a fec1 b13d
000001a0: 9c30 073d d900 7cbc 7afe 403c 6eba 21bb
000001b0: 026b b1bb 54e8 80bd baab 74bd f186 6fbd
000001c0: 9d62 823c b6de 0fbd 9fd9 07bd 5806 5e3d
000001d0: 52b2 2e3c dad6 0c3d 40ea cbba b650 f8bb
000001e0: 63f8 3f3c e3c5 553d f17c 1abd d30c b7bb
000001f0: 3428 073c 1887 f83c 17c5 a83c 1b73 0580
-0.08210961 0.07404567 -0.00012845795 -0.004619838 -0.004743237 0.0050316965 -0.057258405 -0.0008006823
-0.016546855 0.076599985 0.06886779 0.010602328 0.026875496 0.056552626 0.010808392 0.06658571
-0.011831397 -0.027731543 -0.00969051 -0.0067261695 -0.0020778687 0.02560721 0.047196675 -0.0129621355
0.012213679 0.0690086 0.020837534 0.002309771 0.0002646055 -0.08118673 0.06907349 1.4513943e-09
0.067804985 -0.026869383 -0.01620413 -0.009060504 0.033977475 0.010215193 -4.92704e-40 -0.00569825
5.01924e-40 -0.037519284 -0.0033899264 0.022059606 -0.008858364 0.00043853305 0.0014098097 0.016082633
0.002090361 0.0030258188 0.049711823 0.005278705 0.0079044225 -0.0107247755 -0.05620454 0.003339759
0.02553743 -0.077722855 -0.0100225955 0.0052495925 -0.052762702 -0.004162341 -0.033980016 0.016635505
0.0027230335 -0.010711881 -2.9101531e-05 0.06326279 -4.9951e-40 -0.07590561 0.082676515 2.5600733e-07
-7.944811e-06 -0.005831989 -0.0052201133 -0.020087134 0.0046061417 -0.010334742 0.028971974 0.0014175714
-0.022655968 -0.00054109225 0.00039837664 0.032739606 0.04854221 0.002415457 0.012074797 0.026646674
-0.003767365 -0.068614095 0.0092176525 -0.04002341 0.0079386085 -0.005899663 -0.0016884471 -0.006578746
-0.0076168794 4.9474e-40 0.009566701 -0.027278384 -0.019709649 0.018726338 0.0012826378 0.08679579
0.033005342 -0.0153810615 0.011779422 -0.002467777 -0.0054143677 -0.06294313 -0.059734084 -0.0584783
0.015916163 -0.035124503 -0.033166524 0.05420527 0.010662632 0.034384586 -0.0015557483 -0.007577981
0.011716935 0.052190673 -0.03771681 -0.0055862456 0.008249331 0.030337855 0.020601792 -5.0047e-40
