sales_model.pth (torch, 228485 bytes, 5 tensors)

layers.0.weight f4 [256, 90]
00000000: f3bc b3bb 3731 41bd a925 2cbd 8f1e 443d
00000010: 7091 023e a177 603e 151f 9b3d 2096 2a3e
00000020: f8b0 483e 1251 463e b434 1e3c 2683 c03d
00000030: 7e8b 6f3e 0ecf a93d 1e8f 083e a4e9 f13d
00000040: 7434 bc3d 2516 033e 3c28 373b 4daa 193e
00000050: 301e 9b3c 1faa 683c 30f5 8f3d 552c 24bf
00000060: 1bad 42bf 36aa d2be 9264 c53e e3ee d2bd
00000070: 2e55 e5bd ce48 ce3c e478 eb3d 497e dabd
00000080: e3ad 4bbf 89c3 283d 2d4a 47bd 6092 a13d
00000090: 80d4 7b3c b974 163c f405 04bc ecc4 60be
000000a0: ba4d 213d 5575 c7bc 7504 2e3e d491 29be
000000b0: e2b0 d93c 7aae 27bf 020f 0fbd a264 003e
000000c0: 9565 273e fa3c a23e e03c 173e ab31 b03e
000000d0: 04b7 713d 3d0e 953e d3dc 663d 9b9a a6ba
000000e0: 9479 e2be ea4a c13e d8b1 9cbb f2e7 1ebc
000000f0: a93f bdbd 206b f539 4b6b 8bbd a9bf 18bc
00000100: 92cb aa3d 06be 473f 8f8e a83e 9619 183e
00000110: 5bbc ac3c 9fe7 693e 5bca 7ebc ecca c3bb
00000120: 3274 053b c1d5 81bc d284 20bb d37e b4bc
00000130: 7f42 9c3c a07a b9bb 98dc 8ebc 5f21 86bc
00000140: 8c0a 3c3c 6a53 103d c900 babc 48b9 3fbb
00000150: 1734 98bb 5941 d7bc 4e35 5cbc d3ac 54bf
00000160: 5169 41bc 833c 9bbc b79a 023b c0db 343c
00000170: 82b1 af39 8c5d b8bd a8dd 3ebd 23a8 88bd
00000180: b3bf 5fbd 11b9 b5bc 78d3 ab3d 5f1a e33c
00000190: 513f a73d 3e3d d3bd 455e 5e3d 956f 743d
000001a0: a8db 193d 493a 9abc 816a 8c3d e1f8 dc3c
000001b0: ac24 923d 1838 a13d 39b3 62bc 616d 9c3d
000001c0: c04e 923d c642 5abd d3f7 383d 795d 133e
000001d0: db32 c63d 6324 6cbb 473c 26bc 1fe7 8cbd
000001e0: 6106 813c f7a5 08bd b05a 6fbd c075 0fbd
000001f0: f860 9c3a ba0d afbc 1e52 163d 46fd 0bbb
00000200: f051 43bd 2de2 96bc 5603 a33d bff3 16bd
00000210: 6c2b 8dbd 405d 2f3b 119d 55bd 03f1 debc
00000220: 205b 0abd eaf4 cbbd 7507 f3bc c2da 83bd
00000230: 85b9 c9bd f638 263d c6db 563c 979f 673c
00000240: 78c3 53bd 2838 cb3e 039c 30bd 114c 6fbd
00000250: 5dce ae3e 08f4 6f3d ed3d 06bf fcd8 a53e
00000260: 308f b4be 4d6e b8bc d439 b0be 3a23 96be
00000270: 4d38 3dbe 609d 10be 5978 b7bd 69f7 2dbf
00000280: 4185 d1bd 3680 543e 10ab 2abe ef92 0cbe
00000290: 040b 6f3e 6f85 c8bd 3ef4 a03d 22f5 553d
000002a0: a887 f3bd acc3 adbd 2e63 4d3e 3996 8abe
000002b0: 7f85 15be 20d9 223e 4405 333d 095a acbe
000002c0: b0ba ddbd afed 35be 0462 953e 5ac7 16be
000002d0: 5a6f 3abc e393 b3bb bbbe fabb fde7 09bb
000002e0: 2fbf 2fbc 056d 858b 6857 d79a ed65 0580
000002f0: e757 0580 ad1a a69e 383c 9b80 08ad c9a4
00000300: 7434 1e95 4f64 0580 7883 6a8e 4c60 0500
00000310: 2e6c 0500 d973 0580 6c5f 0580 925d 0580
00000320: 2858 0580 5c75 0500 6f69 0580 6993 5c2a
00000330: 11cc a52c b01f 8531 5659 0500 2f75 5a8c
00000340: 9f7a 0500 716b 0580 70c5 a383 e357 0500
00000350: 329d 062b 1d7e 1e11 0ba2 0580 d865 fb0f
00000360: 5057 0500 2a63 0580 645d 0580 f557 0580
00000370: e6f3 9e8a 1867 0600 8b61 0580 656a 0580
00000380: 275f 0580 f53f bc27 1665 0500 4faf 43aa
00000390: c1e0 f5aa fb78 0fa5 4b7d 54ad b862 159c
000003a0: c3ba bea6 8787 a59e d2bf a286 ee96 8833
000003b0: a6c0 5925 1e68 0500 31e3 fb36 7914 1333
000003c0: 8bba 12b8 2237 3c37 c290 bdb5 f1e9 9932
000003d0: 7fd1 31b8 0e3a 14b7 50c3 fdb4 3d08 b8b3
000003e0: 2de9 12b2 70d1 25b8 1458 0500 0c46 2736
000003f0: 9644 e120 9552 832c 8658 a135 465c 0580
-0.005485171 -0.047166076 -0.042028103 0.047880705 0.12750793 0.21920635 0.07574288 0.1665883
0.19598758 0.19366863 0.00965612 0.094000146 0.23393056 0.08291446 0.13335845 0.118121415
0.09189692 0.12801416 0.0027947566 0.15006371 0.018935293 0.014200716 0.07029188 -0.64130145
-0.7604539 -0.41145486 0.38553292 -0.1029947 -0.11197887 0.0251812 0.114976674 -0.10668618
-0.79562205 0.0412021 -0.048654724 0.07889247 0.015370488 0.009183102 -0.00805806 -0.2195012
0.039380766 -0.02434794 0.16993888 -0.16559535 0.026573602 -0.65500605 -0.034926422 0.12538388
0.16347344 0.31687146 0.14769316 0.34412894 0.059012428 0.29112425 0.056362938 -0.0012710871
-0.44233382 0.37752467 -0.004781943 -0.009698855 -0.09240658 0.00046809856 -0.06807574 -0.009323039
0.08339609 0.7802433 0.32921264 0.1485351 0.021085909 0.22842263 -0.015551175 -0.005975118
0.0020363447 -0.015848996 -0.002449323 -0.02203313 0.019074677 -0.00566037 -0.017439172 -0.016373334
0.011477124 0.0352358 -0.022705453 -0.0029254723 -0.0046448815 -0.026276277 -0.013440443 -0.8307621
-0.011804895 -0.018949753 0.0019928643 0.011038721 0.00033510855 -0.09002218 -0.046598107 -0.066726945
-0.054626178 -0.022182973 0.08389944 0.027722536 0.081663735 -0.103144154 0.05428912 0.059676725
0.037562996 -0.01882662 0.068562515 0.026974143 0.07135901 0.07872027 -0.013836675 0.0763805
0.071439266 -0.053286336 0.04515822 0.14391126 0.09677669 -0.003603243 -0.010146207 -0.0688002
0.015750112 -0.0333614 -0.058436096 -0.035024405 0.0011930754 -0.02136885 0.036699407 -0.002136068
-0.047685564 -0.018418396 0.07959621 -0.03685355 -0.06893048 0.0026758462 -0.052151743 -0.027214533
-0.03377831 -0.09958823 -0.029666642 -0.06438209 -0.09849838 0.040581666 0.0131139215 0.01413717
-0.051700085 0.3969128 -0.043117534 -0.058422152 0.34141818 0.058582336 -0.5243824 0.32392108
-0.35265493 -0.022513533 -0.3441912 -0.2932375 -0.18478508 -0.14122534 -0.08958501 -0.6795564
-0.10230494 0.20752034 -0.16666818 -0.13727926 0.23344046 -0.097910754 0.078590855 0.05223573
-0.11891109 -0.08484587 0.20057365 -0.27067736 -0.14601706 0.15903139 0.043706194 -0.3366244
-0.108266234 -0.1776645 0.29176342 -0.14724484 -0.011379087 -0.005480276 -0.0076521314 -0.0021042817
-0.010726734 -5.139377e-32 -8.906313e-23 -4.95742e-40 -4.90711e-40 -1.7586967e-20 -1.4256104e-38 -8.746298e-17
-3.1949224e-26 -4.95161e-40 -2.8906027e-30 4.93722e-40 4.97985e-40 -5.00736e-40 -4.93408e-40 -4.92744e-40
-4.90802e-40 5.01278e-40 -4.97e-40 1.9591068e-13 4.712238e-12 3.874412e-09 4.91225e-40 -1.6829373e-31
5.03166e-40 -4.9772e-40 -9.625608e-37 4.90705e-40 4.7824516e-13 1.2502864e-28 -5.17308e-40 2.478974e-29
4.905e-40 -4.94751e-40 -4.9268e-40 -4.9073e-40 -1.5306591e-32 5.87996e-40 -4.9417e-40 -4.97345e-40
-4.93312e-40 5.2249825e-15 4.9544e-40 -1.7380302e-13 -4.3676697e-13 -1.2444263e-16 -1.2078625e-11 -4.9427556e-22
-1.323452e-15 -1.7526107e-20 -6.121948e-35 6.3604475e-08 1.8887022e-16 4.96528e-40 7.5068315e-06 3.4244724e-08
-3.4982844e-05 1.121851e-05 -1.4123727e-06 1.7917928e-08 -4.2395197e-05 -8.835004e-06 -4.726703e-07 -8.569666e-08
-8.5513365e-09 -3.953412e-05 4.90774e-40 2.4925712e-06 3.816187e-19 3.7324124e-12 1.2021198e-06 -4.92279e-40

layers.0.bias f4 [256]
00000000: 5571 88bd 435b ddbd cffb f4b3 715b c5bd
00000010: 10f0 933b 4e28 a1bd 6cae 8cba e03a 6abd
00000020: 71e5 6abd 6d0a b7bd 0487 0bbb 6559 0580
00000030: a308 c7bd b45d 0580 418f 0500 6ed9 82bb
00000040: 5e83 cbbd fcca babb 49a0 9d3d 7ee7 57b7
00000050: 35e1 75bb 7a96 58bd 4ef6 75bc f51f 87ae
00000060: f666 3dba 10bc 053d 5271 0500 bb8b 0500
00000070: badf 0500 a453 a7bd c204 6bbb 5262 60bc
00000080: 7c6a c3bb 18ea 333d 8f9a b2b1 cdd0 f9ba
00000090: eb61 bfbd c5c8 a8b9 2b38 dfbd 946c 933d
000000a0: 9869 cabd 5eca 1a3d 9f6f 18bc 46c4 8e06
000000b0: 15df 963c 9223 0600 e56c 0500 0760 0580
000000c0: 2766 0580 273c 0db8 5c59 35ba 7fe6 be26
000000d0: 4dfe dd2c 2f7f 75bd a828 a6bd a6f8 c3ba
000000e0: 6b0e a7bd 1792 8abd 3a83 0500 9136 a93d
000000f0: 3bc4 48bd d884 fbbd 077d 56bd 3f8b 9ebc
00000100: e8b9 a03d bdae 0fbc d829 5cbd ad3c 2e3c
00000110: 8383 0580 c771 0580 f2a8 9bbd fb57 0500
00000120: edfe c3bb 1deb b03b e38e 4d3c 16be 1a3d
00000130: 479f 21bc 2a59 0580 0e2f 6ebc 150e 373d
00000140: 8915 56ba 787d 673d 38e8 7abd e173 ae39
00000150: a5f4 033d 4ecc 0500 7b70 603d dfbd 8fbd
00000160: 4f67 0500 558c 7dbd 8cff e0bd f0e1 1d3d
00000170: 2e43 b3bd 3a61 0500 eab1 933d 4bdc efbc
00000180: b96f 0fbd 935f 0500 843a 0600 507a d9bd
00000190: b2cb d0bd 5f15 adbd 6cd7 68b8 4143 2bbd
000001a0: eb99 82bc d065 4dbd d375 0580 270c dabd
000001b0: fbdd 07bd 6a75 0500 8ec8 4a3d 4bb6 9bbd
000001c0: 72c2 84bd 2bc4 a23d 6534 3dbc 8537 cd3d
000001d0: 945c 15bc c265 563d c3ad e2bd 2c6f 0580
000001e0: d497 92bc 65c9 d5bb f3c3 a3b8 9390 c4b7
000001f0: f0ee afbd 85d2 61bc 7ef5 94bb f834 733d
00000200: c882 21bb ce70 50bd 53ff b321 3965 acbd
00000210: a068 01bd 7fc0 ef3c b6ba 8bbc 8620 503d
00000220: 1f00 aabc 894d 0600 b8f8 7b3d 8879 0500
00000230: 8867 0580 f66a 0500 4a01 cbbd aa85 fc3c
00000240: 6ce5 0500 24c2 05bd fee3 8996 09db 543d
00000250: 672c 0f3a 069b 6bba cb24 23b8 2d3d 64bc
00000260: 2fb0 593b 4cf6 58bc 4873 0500 c237 8e3c
00000270: f766 1f3d 7421 ddbd ae5f 0500 ae18 d6bc
00000280: 47af a8bd 4d08 02bd 1a13 c73d 1fc6 80bd
00000290: bb28 c53d 3dc3 debb c740 fd3c 8c84 90b9
000002a0: 3873 0580 84ce 533c cb0d 4e3c fd0e 0abc
000002b0: e558 043b 999c cdbb 60f2 73bd 1d4f d8b8
000002c0: b061 0580 803c 09b8 1ab8 05bd 3077 d43d
000002d0: 9a77 9dbd bd5f 5f3d 46a1 77bd f38e 0580
000002e0: 0099 183d 64fe 57bb 9289 5ebd e7f2 13bc
000002f0: 4736 38b6 295d 0580 5ec2 1bbd 1b11 56bd
00000300: 036f 30bb 07c3 bb3c 7db2 0500 8917 10bd
00000310: e17c cfbc a3d7 9f3d c73c 1dab 28d3 98ba
00000320: 1e7d a73d fc1e 76bb 0329 a23c 060b 03b8
00000330: f767 fd25 05ce 982f c5a2 77b9 da6f 0500
00000340: 139f b2bb 4be9 92b9 5599 a2bd 905a e1b6
00000350: e14d d6b3 f41e dbbc 0b2b 033d 0084 0580
00000360: cd32 93b6 6271 0580 db98 b2bd f07a 53bd
00000370: 45fb 4a3d b5c3 70bd c458 b23b ae10 dfbc
00000380: e410 56bd 5cd5 41b8 cd21 3e3d d55b 0580
00000390: a164 0500 b19d 7f39 7e2d d7bd 4b34 953d
000003a0: 78fe e1bc 6320 cdb3 df54 bfb8 0f87 c5bc
000003b0: 4a23 a0b8 5862 96bc 843b d9bc c7f8 cbbd
000003c0: 04c2 313d 2f5c 8abc e199 edba 5886 f39f
000003d0: 94de 9dbb 3bc3 f5bc 2c72 0500 12bf f5bc
000003e0: c2ef 47bd b5fc 28ac c170 52b9 7774 8fbd
000003f0: a28d abbd 9b21 c7bd 142e 803a 5998 c89c
-0.06662241 -0.108084224 -1.1407939e-07 -0.09636582 0.0045147017 -0.07869016 -0.0010733134 -0.057185054
-0.05734772 -0.089375354 -0.0021290192 -4.91246e-40 -0.09718444 -4.92792e-40 5.10567e-40 -0.003993205
-0.09937166 -0.005700467 0.076965876 -1.2868897e-05 -0.0037518267 -0.05287788 -0.015012337 -6.144766e-11
-0.000722512 0.032650054 4.99829e-40 5.09303e-40 5.39435e-40 -0.0817025 -0.003586099 -0.013695316
-0.0059636217 0.04392442 -5.198053e-09 -0.001905942 -0.09344848 -0.00032193042 -0.10899385 0.07198444
-0.09883422 0.03779065 -0.009303956 5.370286e-35 0.01841692 5.63773e-40 4.98241e-40 -4.93626e-40
-4.95823e-40 -3.367304e-05 -0.00069179176 1.3246375e-15 6.309431e-12 -0.059935745 -0.08113223 -0.0014951422
-0.08157047 -0.06766146 5.06253e-40 0.08262361 -0.049015265 -0.12281197 -0.05236533 -0.019353507
0.07847959 -0.008769688 -0.053750843 0.010634583 -5.06355e-40 -4.99993e-40 -0.07600583 4.90739e-40
-0.0059813173 0.0053991214 0.012546274 0.037778936 -0.009864635 -4.91164e-40 -0.014537586 0.044691164
-0.0008166661 0.05651614 -0.061256617 0.00033274203 0.032215733 5.32468e-40 0.05479477 -0.07018637
4.96238e-40 -0.06190141 -0.10986242 0.03854555 -0.08753048 4.94056e-40 0.07211669 -0.029279849
-0.035018656 4.93463e-40 5.72004e-40 -0.106190324 -0.10195102 -0.08451342 -5.5513738e-05 -0.041812185
-0.015942534 -0.050145924 -5.01445e-40 -0.10646849 -0.03317068 5.01298e-40 0.04950767 -0.07603129
-0.064824 0.07947572 -0.011548136 0.10020355 -0.009116311 0.052343138 -0.11068299 -4.99058e-40
-0.017894663 -0.0065242522 -7.808944e-05 -2.3432343e-05 -0.085904956 -0.013783102 -0.0045458665 0.059376687
-0.0024644602 -0.05088883 1.2197096e-18 -0.08417744 -0.03159392 0.029266594 -0.017056804 0.050812267
-0.02075201 5.78827e-40 0.061516494 5.02775e-40 -4.96317e-40 4.97548e-40 -0.09912355 0.030825455
5.41479e-40 -0.03265585 -2.2277427e-25 0.0519667 0.00054616336 -0.0008987639 -3.8896495e-05 -0.013930601
0.0033216586 -0.0132423155 5.00533e-40 0.017360572 0.038916554 -0.10797396 4.93501e-40 -0.026134815
-0.082365565 -0.031746197 0.0972044 -0.062877886 0.09626909 -0.0067981766 0.030914677 -0.00027564575
-5.0051e-40 0.012927655 0.012576531 -0.008426425 0.0020194587 -0.0062747714 -0.05955732 -0.000103144186
-4.94221e-40 -3.271969e-05 -0.032646276 0.10374296 -0.07688828 0.054534663 -0.060456537 -5.10458e-40
0.037255287 -0.0032958025 -0.054330416 -0.00903008 -2.744973e-06 -4.92597e-40 -0.03802716 -0.052262407
-0.0026921637 0.022920145 5.23207e-40 -0.035178695 -0.025328102 0.07804801 -5.586195e-13 -0.0011659609
0.08178161 -0.003755509 0.019794947 -3.12431e-05 4.3958953e-16 2.7795025e-10 -0.00023616392 4.99302e-40
-0.005451092 -0.00028021107 -0.07939402 -6.7160654e-06 -9.9793176e-08 -0.026748158 0.03202347 -5.0653e-40
-4.3868554e-06 -4.99852e-40 -0.08720561 -0.051630914 0.049556036 -0.05878039 0.0054427106 -0.027229633
-0.052262202 -4.6213492e-05 0.046418954 -4.9212e-40 4.95276e-40 0.0002437744 -0.10506724 0.07285365
-0.02758716 -9.5519475e-08 -9.123398e-05 -0.024112253 -7.6359676e-05 -0.01835744 -0.026517637 -0.0995956
0.04339792 -0.01688966 -0.0018127525 -1.03136756e-19 -0.004817793 -0.03000032 5.00135e-40 -0.029998336
-0.048812635 -2.4014517e-12 -0.00020069165 -0.07004636 -0.08376624 -0.097232066 0.0009779357 -1.3274271e-21

layers.2.weight f4 [128, 256]
00000000: 4ec1 a33d 8ce1 2e3d 04cb 8dbb 232d 423d
00000010: fa38 ddbc 076f 6bbc 0a71 713b bbbc edbb
00000020: d732 f4bc 8bcc 36bd 4690 693d f05b 0500
00000030: fb23 d1bc 509c 4d3a 57ae 0580 e34e 563c
00000040: 872a 6d3c 85d4 b9bb 6184 c13c 08cc aebb
00000050: 6e03 5cbc d025 53bd 6827 0cbc 86b2 89bb
00000060: 3037 06bb 88b9 4c3d cd01 0680 cc85 0580
00000070: 7f95 0500 63f6 b23c 17f6 e8bc 0684 753c
00000080: ed75 cf3b 5a8c 063d 7a4e 6dbb c6da efba
00000090: 14ec 70bc 1ce8 853c 8285 7b3d 5249 133d
000000a0: 7826 ed3c cbd2 fb3c 69ed aaba 01f2 49a6
000000b0: 4ce3 283d 6876 0580 3620 5d3c 59de 2bb4
000000c0: c8ae dd3a 4468 ebba 90ab 83bc eac8 a038
000000d0: 4d62 0580 5244 60bc ad64 d93c ac39 e33b
000000e0: 1b64 2a3b 0b9a b63b 0e65 0580 21f0 f33c
000000f0: 269c 293c faa3 313c 3997 133d 14ff 43bc
00000100: 4e2d 9dbc 600a bfbb 6378 d6bc 54f4 36bd
00000110: d59a 0680 1c05 9a3c 60ad 863b 3211 60b6
00000120: 11c8 a137 af3e 273d 1513 91a7 dc1b c13a
00000130: 5d6c 2c3d 0b8b 0500 ca06 ed3b 082a cabc
00000140: 8cf7 3ebc d2c7 d8bc 6ffa 5c3d 6c5d 0500
00000150: bf82 c2bc ff5a 0580 623b 36bc a0b3 16bc
00000160: f660 0500 e9e6 2f3d bddd 61bd 3361 cebb
00000170: a5fc 20bb 5f6a 0500 ed5a ccbd cf51 9f3c
00000180: 4ff1 8f3e 4762 0500 04cf 0580 5b98 94bc
00000190: 5d77 febc caf4 203d e136 8abc f742 06bd
000001a0: 9e84 213d b6ea e53b 6c63 0500 b79a 673d
000001b0: aec4 1e3d 2893 0580 e269 843c 2faa 8cbc
000001c0: 89d9 cf3c 201a 073d 3c58 003c 39f3 65bd
000001d0: f4f6 3bbc a264 563d c350 07bd 925a 0580
000001e0: f972 6e3d c4d4 463d bd15 92bb 9956 32bb
000001f0: 2edf 3a3d f2df 54bd a96e d33b 318d 653c
00000200: 6dd0 ebbb 8068 27be 7f00 81ae e255 b63c
00000210: 42fd 5dbd 95a8 dcbc 9e97 c3bc 794f 5ebd
00000220: 9424 893c 5d86 7dbb d150 4b3d 3268 0580
00000230: 9a6c 0500 8fa8 0500 209d 0bbd c0e1 093d
00000240: 4982 0500 e860 373d a45f 0580 bc96 a53b
00000250: 825b 39bd a852 85bb e83a 723c 94cf 3fbd
00000260: 8bd6 dc3b c441 623c 31aa 0580 d6ca da3d
00000270: 88f3 023b e5a8 f23c 7b6d 0580 63e3 11bd
00000280: a5ca 6b3d d792 4bbd ba58 62bd 61cc 053d
00000290: 930c ffbb 703e 843c 15eb 10bb 6024 a4bb
000002a0: 5764 0580 5a6e aabc 761f 46bd 2a36 6ebd
000002b0: 5b52 db3c 1022 0d3c 22ea f63c eac2 fc3b
000002c0: e305 ea00 6fcd 773b 5a84 f7bc 1fb5 6639
000002d0: 39b6 11bd 8ee6 6b3c 93cf 9e3b e081 0500
000002e0: 5fbd 5d3c 7847 12bc f745 683d 3320 b63c
000002f0: 9ba4 ffb9 ed6d 0500 7416 4bbd 0aff 083b
00000300: 2531 c8bb b5ff bbbc eb64 0580 8c2e 45bd
00000310: 0774 0299 90f5 493c 12a3 833c b3ba 733c
00000320: ff4e 3abb 5bf9 6a3c 54c2 ccbc c56c da2d
00000330: d40c 68b7 d4e0 572d 07bf 363b c68b 0580
00000340: 355f babd 1e15 8e3c bdd7 18bd bf60 a8bb
00000350: eb70 3cbb a728 e3bc fe69 e5ba 90b9 0500
00000360: ecd1 2d3a 295b 0580 e5cb 80bc 4c8e 62bb
00000370: 98b2 13bd 2e5f 51bd b777 6b3d e4b9 35bd
00000380: 0d43 11bd 23e2 fdbb 6f63 73bd 7365 0580
00000390: 8b5c 0500 6f60 0500 a721 69bd 12ad 6fbd
000003a0: b9c2 9ebc bfbe 4539 476f e73b 5925 5a2e
000003b0: b45b 1d3c abc7 0b3c 2343 5bbd 70ed 413d
000003c0: c7ce 573d 2839 6b3c 5e74 1fbc 2398 c433
000003d0: a7d2 a9bb 0529 173c fcca 3615 e0de db3c
000003e0: d30a 13bd 0f5f 660a bba7 bb3b f8de 5f3d
000003f0: 109e 4cbc 5e9e 9f3c 7489 9f3e 4cd3 3fbb
0.07995854 0.042695567 -0.00432718 0.047406327 -0.027004708 -0.014369733 0.0036841058 -0.0072551644
-0.029809399 -0.04462866 0.057022355 4.92158e-40 -0.025529852 0.0007843422 -5.21719e-40 0.0130803315
0.014475471 -0.0056710863 0.023622693 -0.005334381 -0.013428552 -0.051549733 -0.008554317 -0.00420219
-0.0020479672 0.049981624 -5.51659e-40 -5.07175e-40 5.12807e-40 0.021846002 -0.028437657 0.01498509
0.0063311965 0.032848693 -0.0036210106 -0.0018299452 -0.014704723 0.01634603 0.06140662 0.035958596
0.028949007 0.030740162 -0.0013040724 -7.006386e-16 0.041232392 -5.01654e-40 0.013496449 -1.6006506e-07
0.0016913051 -0.0017960151 -0.016073018 7.666818e-05 -4.94441e-40 -0.013688164 0.026537264 0.0069343653
0.002599961 0.0055725626 -4.95429e-40 0.029777588 0.01035217 0.010842318 0.03603289 -0.011962671
-0.019186642 -0.005830094 -0.026180452 -0.044666603 -6.06556e-40 0.018801264 0.0041100234 -3.338861e-06
1.9285859e-05 0.040831264 -4.0266273e-15 0.0014733034 0.04209553 5.09057e-40 0.0072334753 -0.024678245
-0.011655699 -0.02646247 0.05394977 4.92691e-40 -0.023743985 -4.91821e-40 -0.011122556 -0.009198099
4.9396e-40 0.042944822 -0.055143107 -0.006298208 -0.002456465 4.97336e-40 -0.0997828 0.019448189
0.2811379 4.94433e-40 -5.3344e-40 -0.018139055 -0.031062776 0.03929595 -0.016871871 -0.032778706
0.039433114 0.007016505 4.94843e-40 0.056544032 0.038761787 -5.11967e-40 0.01616377 -0.017170994
0.025372284 0.0329839 0.007833537 -0.05614016 -0.011472452 0.052342065 -0.033036005 -4.91668e-40
0.058215115 0.048542753 -0.004458158 -0.002721226 0.045622997 -0.051971383 0.0064524007 0.014010713
-0.007196477 -0.16348457 -5.866329e-11 0.022257749 -0.054196604 -0.026935855 -0.023876008 -0.05427501
0.016741075 -0.0038684823 0.04963762 -4.96556e-40 4.98136e-40 5.19645e-40 -0.034085393 0.033662558
5.05915e-40 0.04477015 -4.93487e-40 0.0050533693 -0.045253284 -0.0040686913 0.014784552 -0.04682882
0.0067394427 0.013809625 -5.2023e-40 0.10683219 0.0019981582 0.02962155 -4.98452e-40 -0.035617243
0.057566304 -0.049700584 -0.055260397 0.032665614 -0.0077834814 0.016143054 -0.0022112776 -0.005009219
-4.95173e-40 -0.020804573 -0.048369847 -0.058157124 0.026772669 0.008614078 0.03014094 0.0077136653
2.1491618e-38 0.0037811657 -0.030214477 0.00022001982 -0.03557417 0.01439823 0.004846522 5.05768e-40
0.013533919 -0.008928172 0.05670735 0.02223215 -0.0004876003 4.98611e-40 -0.04958196 0.0020903968
-0.006109374 -0.022949079 -4.9538e-40 -0.048140094 -6.744274e-24 0.012326613 0.016068969 0.0148760555
-0.0028428433 0.014341678 -0.024995007 2.4832034e-11 -1.3831264e-05 1.2271257e-11 0.0027884857 -5.09319e-40
-0.091001906 0.017344054 -0.03731512 -0.005138486 -0.0028753828 -0.027729345 -0.0017502902 5.25745e-40
0.0006630707 -4.9188e-40 -0.015722224 -0.0034569679 -0.036058992 -0.05111616 0.057487216 -0.044366732
-0.035464335 -0.007747905 -0.059421 -4.9557e-40 4.92376e-40 4.93771e-40 -0.05691686 -0.058514662
-0.01937996 0.00018858442 0.007062826 4.9600633e-11 0.009604383 0.008531491 -0.053530823 0.04734558
0.052687433 0.014356889 -0.009732334 9.154635e-08 -0.0051825824 0.009226088 3.6914734e-26 0.026839674
-0.035898995 1.1091976e-32 0.005726782 0.054656 -0.012488857 0.019484695 0.31159556 -0.002927023

layers.2.bias f4 [128]
00000000: bb85 b43c b8bf 85bb 42ac 0580 782b 343d
00000010: c56a 94b7 0f60 0580 3aff 433d 006b 5cbd
00000020: 3291 50bd 5a86 183d 5553 743d 0e67 9fbc
00000030: 9a2d 81bd 2518 863c 786c 0500 debf 103d
00000040: 11e3 71b4 c9ae 463d 6dd2 e6bc 1cd4 c73c
00000050: 1944 6f3d 645a d9b6 3707 abbc 786c 403d
00000060: d1db 833c d0c3 cbbc 88d6 eea3 8eb4 efb9
00000070: a152 93b9 d2e3 9994 3d39 52bc 1a6c 0580
00000080: 93ac 8fbb 1f2d 08bd 822e bc3b 1619 8db9
00000090: 085b 0580 81eb 483d 95b5 08b9 95d2 22bd
000000a0: 7169 18bd 455c 0500 a808 11bc 0774 0500
000000b0: 955b 13bd 1652 68bd 8f3a 6cbd 2502 40bd
000000c0: f0af 943c 2033 d2bb 7267 0580 ba88 0abd
000000d0: 89a8 313c 6570 0abd f45f 98bb c565 0500
000000e0: 7cb3 e2bb fc19 64bc 21a0 b8bc 3f97 c03c
000000f0: bfc9 d23c b49c 0580 4205 30bd 3e45 06ba
00000100: 6c8b 87b5 8dd8 0600 9b33 dfbb 0ab8 61bd
00000110: 592a d38f 2508 95b6 6dab 06bc 1b40 803c
00000120: f20d 06bb 11fa 62ae 5d3e 9b3c b1c4 9bb8
00000130: 1ca9 51bd efe9 c1ba 2bb6 e8bb 3a4f 1734
00000140: 5fcd b1bc 272c 4f3c dfa5 8b3c 1267 173d
00000150: 4d08 ef3b d20e 77bd b2d5 5aba 28e5 a5bc
00000160: e363 333d 4d5d 0500 f5af 6cbd 11cb b9b0
00000170: 026d 45bd 96e1 78bd 4467 d3b9 0551 383d
00000180: 7486 0580 1b49 e13c f654 d0ba bb11 3a3d
00000190: 4b81 59a5 213f 363b 6e6a 35bd e7e2 ab3b
000001a0: 5619 fd3c 6869 0580 b111 fcbc 1b65 c3ba
000001b0: e9fc 4ebd 08d5 383d dc68 0500 1129 beb9
000001c0: f00c b7bc 5f52 91b9 0be7 363d 9b6c 0500
000001d0: 72ca 09bb e76b 663d 7bf0 183d eb6b f3ba
000001e0: c991 17bd 64bc 0e3d 7c20 123c 915c d4ad
000001f0: 8a7d 0580 2619 8dbb 8442 91bb 0b95 0d3d
0.022036424 -0.0040816925 -5.20972e-40 0.043986768 -1.7692693e-05 -4.93637e-40 0.047850825 -0.05381298
-0.05091972 0.037237503 0.059649784 -0.01945832 -0.06307526 0.016368935 4.98089e-40 0.03533923
-2.252748e-07 0.048506532 -0.02817651 0.024393134 0.058414552 -6.477627e-06 -0.020877464 0.046978444
0.016096028 -0.024873644 -2.589487e-17 -0.00045720156 -0.00028099588 -1.5538911e-26 -0.0128310295 -4.97957e-40
-0.004384586 -0.033246156 0.005742849 -0.00026912306 -4.91833e-40 0.04905272 -0.00013037615 -0.039751608
-0.03720993 4.92278e-40 -0.0088521615 5.008e-40 -0.03597601 -0.05671891 -0.057673033 -0.046877045
0.0181503 -0.006414786 -4.96287e-40 -0.0338218 0.010843405 -0.033798594 -0.0046501104 4.95686e-40
-0.006918369 -0.013922211 -0.022537293 0.02350962 0.025730966 -5.15392e-40 -0.042973764 -0.0005122012
-1.0098861e-06 6.28697e-40 -0.006811572 -0.055107154 -2.0822518e-29 -4.441494e-06 -0.008219582 0.015655568
-0.002045509 -5.1608554e-11 0.018950636 -7.4276126e-05 -0.051186666 -0.0014794449 -0.0071017942 1.4091793e-07
-0.021704374 0.012644804 0.017046867 0.03696353 0.0072946907 -0.060316868 -0.0008347883 -0.020250872
0.04379643 4.92647e-40 -0.057784993 -1.3518237e-09 -0.04819966 -0.06076201 -0.00040321995 0.04499914
-5.0741e-40 0.02750068 -0.0015894461 0.045427065 -1.8865556e-16 0.0027808624 -0.044290952 0.0052455547
0.03089587 -4.9699e-40 -0.030770155 -0.0014907451 -0.050534163 0.045125037 4.96794e-40 -0.0003627022
-0.022345036 -0.00027717926 0.044653933 4.98138e-40 -0.0021025208 0.056255247 0.037338715 -0.0018571591
-0.037004266 0.034847632 0.008918878 -2.4142717e-11 -5.04212e-40 -0.0043059764 -0.004432978 0.034565967

layers.4.weight f4 [1, 128]
00000000: 8c02 24bc b89a 85bd 9884 0580 721e 4c3d
00000010: e4fc f5bb 027d 9cb6 5738 91bd b825 e7bb
00000020: 1cce fa3c a969 77bd d6d2 7f3d 0bae 0ebd
00000030: 0aa9 8f3b da36 83bd 275e 0500 2a74 52bd
00000040: 43ea e73b a63a 773d f871 0c3d d042 873d
00000050: 4d46 f2bc 327a 043c ced3 6bbd 9967 70bc
00000060: 4b68 473c 72e9 a73c ab8c 3bb3 dd41 14bd
00000070: 673d cb3b 4c01 b8bb db2d 78bb 2862 0500
00000080: 7afd 033c 6be1 35bd 67b7 c2bb 1ed8 0c3b
00000090: 8e22 4137 f20a fa3c 59e2 80b9 560d 9d3d
000000a0: 633a fa3b 756f 19b7 591f 6c3b bf66 0580
000000b0: 1589 0ebc c915 50bc e162 d4b9 2c8f 1c3d
000000c0: b2bb fcba a667 52bc c254 2c3b ddfc 9c3d
000000d0: 131d 193d 69d2 8c3d 7233 9d3b c861 53bc
000000e0: a33c 71bc 4b23 b5bc 9488 6b3b 5aa2 3fbd
000000f0: 8f5e 4cbd 2c74 5f2f 4d9f 9abd e785 003c
00000100: c8c1 25bc 035d 0500 ccfc 8dbc 12c8 7b3b
00000110: 0244 86a3 4a7e 153c ca81 d8bc 458f 783d
00000120: 0c80 373d c865 38bc 9e01 5b3d 2866 15bc
00000130: e101 92bd 1d8e 073e 9714 853a f801 713d
00000140: ae3e 89bd 1149 8c3c b5bc 11bb f049 17bc
00000150: ca02 5d3c fcaf 7a3d dcc3 f73b 7e2d 1bbb
00000160: 66d1 62bc 2de1 3d3c 661d adbb 38bb 37bc
00000170: fac2 a23d bf61 dd3c d6ed 1c3c a6ad 6bbd
00000180: b532 b530 eae4 2d3d 0930 823d 0157 063d
00000190: d535 50bd 3c9f ccbc a014 093d cdb9 033a
000001a0: 9e34 2e3d 77da 881a 8749 92bd 48d9 96bb
000001b0: 4f7b 86bd a6c3 303b 432d ebba 11c4 90ba
000001c0: e3c4 caba 6200 8339 d8c0 e63a aa32 c8b7
000001d0: 8895 8c3c 3a5b 043d c690 96bd ab4e cfbb
000001e0: 3e3e 8b3d 4792 63bd ffdd 0f3d 0dc5 33bc
000001f0: fca7 e108 e8af 2c3c 814e d2bc 3083 6e3d
-0.010010373 -0.06523651 -5.06743e-40 0.049833722 -0.0075069536 -4.663715e-06 -0.07090824 -0.007054057
0.030615859 -0.0604035 0.06245693 -0.03483395 0.0043841647 -0.064069465 4.92953e-40 -0.051380314
0.0070774867 0.060358666 0.034288377 0.0660454 -0.029574538 0.008085774 -0.05757504 -0.014673137
0.0121708615 0.020497058 -4.3667267e-08 -0.036195625 0.006202388 -0.005615389 -0.003786913 4.9439e-40
0.008056039 -0.04440443 -0.0059422734 0.002149112 1.1511742e-05 0.030522797 -0.00024582705 0.07668559
0.007636355 -9.145461e-06 0.0036029427 -4.96036e-40 -0.008699675 -0.0127005065 -0.00040509462 0.038222477
-0.0019282012 -0.0128420945 0.0026295637 0.07665417 0.037381243 0.0687607 0.0047973925 -0.012901731
-0.01472393 -0.022111556 0.0035939561 -0.04678569 -0.049894866 2.0323004e-10 -0.075499155 0.007844425
-0.010117002 4.92544e-40 -0.017332457 0.0038418812 -1.4557112e-17 0.009124348 -0.026429076 0.060683507
0.04479985 -0.011254735 0.05346834 -0.009118594 -0.071292646 0.13237806 0.0010153231 0.05883977
-0.06701408 0.017124685 -0.0022237722 -0.009233937 0.0134894345 0.061202988 0.00756119 -0.0023678239
-0.01384387 0.011589331 -0.0052830456 -0.01121407 0.07947345 0.027024148 0.009578189 -0.05753865
1.3183895e-09 0.042454638 0.06356818 0.032797817 -0.05083259 -0.024978273 0.033466935 0.000502494
0.04253065 5.660123e-23 -0.071429305 -0.0046035387 -0.06566488 0.0026972084 -0.0017942566 -0.001104476
-0.0015470054 0.00024986552 0.0017605079 -2.386545e-05 0.017161146 0.032313563 -0.07351832 -0.0063265166
0.06798981 -0.055559423 0.03512382 -0.010972274 1.3581188e-33 0.010539986 -0.0256722 0.05823058
