sales_model.pth (torch, 228485 bytes, 5 tensors)

layers.0.weight f4 [256, 90]
-0.015336719 -0.015001935 -0.015164998 -0.014555198 -0.0142929545 -1.060069e-09 -1.45913e-08 -7.333378e-07
-2.5587255e-08 -1.4567816e-08 -3.552994e-08 -3.5292322e-09 -4.306057e-08 -2.2052319e-07 -7.0483146e-08 -3.7695667e-08
-1.1366616e-06 -4.63771e-09 -5.0373195e-10 -2.5651567e-10 -6.7561995e-10 -8.666381e-08 -2.9461316e-09 -2.3524491e-11
-1.8164407e-08 -8.138869e-09 -5.099633e-10 -1.1284272e-06 -3.4625324e-07 -4.2983443e-09 -1.9625689e-07 -1.1659663e-08
-1.2491212e-10 -2.7754947e-08 -5.8501037e-08 -3.809756e-11 -2.9446213e-07 -1.2529244e-07 -1.3138725e-07 -9.551244e-07
-4.2785695e-09 -2.0556014e-07 -2.9712476e-08 -5.8549062e-08 -1.8327945e-08 -1.2510218e-06 -1.5427556e-08 -8.049721e-10
-2.4797524e-07 -2.0553547e-07 -1.28206e-08 -9.247251e-07 -6.561598e-08 -1.8770157e-09 -4.829583e-08 -5.747536e-08
-2.3548852e-08 -9.014673e-11 -2.1854598e-06 -8.783476e-06 -1.546025e-05 -3.6166368e-06 -1.8277684e-05 -3.318416e-06
-2.1745222e-05 -1.3364729e-05 -2.3204047e-05 -8.058773e-06 -3.180113e-05 -8.381478e-06 -2.2266897e-06 -6.1358844e-07
-1.4609081e-05 -8.159946e-06 -7.289711e-06 -1.2038214e-05 -9.3488086e-07 -2.260844e-06 -3.907634e-06 -1.13000715e-05
-5.149945e-06 -1.0135525e-05 -2.7418186e-05 -4.7206336e-06 -2.6449732e-06 -3.9861086e-05 -1.1193356e-05 -1.5493655e-05
-5.418587e-06 -9.042403e-06 -0.007862011 0.023462787 -0.062038757 0.034490976 0.02006478 -4.2552383e-08
1.0260139e-08 1.2483378e-09 6.42227e-08 2.7725662e-09 6.935114e-10 6.12574e-11 1.9158367e-07 2.0041064e-06
-9.359694e-10 -6.667403e-07 -8.334198e-07 -1.3994169e-07 -2.5281158e-06 -1.5169921e-06 1.880947e-07 -4.5430482e-07
1.2431178e-07 -2.3381404e-05 -3.4378394e-05 5.131126e-05 3.286416e-08 -1.1967539e-08 -6.055364e-07 -1.0381613e-06
-7.651251e-10 5.720537e-08 -5.275014e-05 -1.5900565e-06 1.0352794e-07 2.2079577e-07 -7.37718e-08 -2.3039906e-08
-2.5369548e-06 -4.5267146e-07 -4.654558e-09 3.6113764e-08 1.8968453e-08 -6.821112e-08 -1.9000526e-08 5.000989e-06
-1.7531329e-07 1.562383e-08 2.5655638e-09 9.397167e-10 1.4689227e-09 2.987207e-09 1.4622346e-09 7.54572e-10
-1.0378688e-09 -0.0001875682 -2.221235e-06 1.1540206e-07 -0.0001718694 -0.000999311 0.00063175865 -0.0012756834
-5.6860423e-05 -0.00041768068 -2.9912353e-05 0.00014287372 3.5730915e-05 2.9184691e-06 -1.7830876e-06 0.0010401384
6.415736e-06 0.0005418831 -0.00012019076 -9.0732785e-05 0.0016447958 -1.4704809e-05 5.4093638e-05 -0.0011011327
-0.0006644618 -5.1808956e-07 0.0018581101 4.195087e-05 8.175719e-05 -0.0014498358 -0.0004364248 3.8431543e-05
7.343283e-07 -3.3579968e-06 -0.00086037035 -3.5651035e-05 0.05759301 0.05820598 0.066338204 0.038072977
0.042133886 0.008796089 0.042502146 -0.1643256 0.032471493 -0.04488381 -0.028099282 -0.04626765
0.07805198 -0.023714282 0.028646905 0.012580173 0.027379492 -0.04533879 0.032225523 0.012013014
0.0038592687 0.103908226 0.09899639 0.058203284 -0.030311253 -0.08194655 -0.025721265 -0.063041724
-0.0035006036 -0.028956873 -0.03118311 -0.032522723 -0.12658563 -0.00092676096 0.027503153 -0.0675554
0.030996297 0.14787932 -0.047540456 0.0680072 -0.15872176 -0.13932158 -0.07753119 0.05723437
0.0071424656 -0.04920562 0.10795804 0.040754166 0.10258214 -0.09067741 -0.029306015 -0.062534586
-0.05725669 0.020668391 -0.052426163 -0.3864574 -0.043179583 -0.081143916 -0.034033116 0.17095163
0.4112165 -0.06838194 0.12693535 0.1278165 0.18337488 0.16933614 -0.058952488 0.084989734
0.04314994 0.46739662 0.08465724 0.09218749 0.19180709 0.07369112 -0.016713418 0.15182331
00000000: dd46 7bbc adca 75bc 9d76 78bc ed78 6ebc
00000010: ff2c 6abc ddb1 91b0 37ad 7ab2 97da 44b5
00000020: f8ca dbb2 ef45 7ab2 9599 18b3 e986 72b1
00000030: 99f1 38b3 f4c8 6cb4 855c 97b3 d3e6 21b3
00000040: 658f 98b5 bb59 9fb1 fc76 0ab0 5f05 8daf
00000050: 87b6 39b0 ef1b bab3 e574 4ab1 72ec cead
00000060: f407 9cb2 20d3 0bb2 7a2d 0cb0 7774 97b5
00000070: afe4 b9b4 a3b0 93b1 afba 52b4 bd4f 48b2
00000080: a357 09af c669 eeb2 9242 7bb3 0a8e 27ae
00000090: 9116 9eb4 2088 06b4 7413 0db4 d331 80b5
000000a0: b202 93b1 f1b7 5cb4 6d3a ffb2 6077 7bb3
000000b0: 946f 9db2 c8e8 a7b5 8e85 84b2 e044 5db0
000000c0: 7521 85b4 29b1 5cb4 9841 5cb2 a03a 78b5
000000d0: c4e8 8cb3 cffc 00b1 d46d 4fb3 d4da 76b3
000000e0: 7948 cab2 193c c6ae eaa9 12b6 be5c 13b7
000000f0: a2b0 81b7 59b5 72b6 0753 99b7 f4b1 5eb6
00000100: 8269 b6b7 1339 60b7 50a6 c2b7 2b34 07b7
00000110: 3462 05b8 2d9e 0cb7 3d6e 15b6 7ab5 24b5
00000120: 8619 75b7 b4e6 08b7 249a f4b6 bcf7 49b7
00000130: 86f4 7ab5 01b9 17b6 521e 83b6 7095 3db7
00000140: b1cd acb6 c00b 2ab7 1b00 e6b7 ef65 9eb6
00000150: 4b80 31b6 8430 27b8 19cb 3bb7 5ff8 81b7
00000160: 4fd1 b5b6 d3b4 17b7 aacf 00bc 0835 c03c
00000170: 5a1c 7ebd 6946 0d3d e55e a43c d7c2 36b3
00000180: 9244 3032 fb91 ab30 cdea 8933 8087 3e31
00000190: 87a1 3e30 dab4 862e 1eb6 4d34 497e 0636
000001a0: 7fa3 80b0 0bfa 32b5 2cb8 5fb5 e142 16b4
000001b0: b3a8 29b6 749b cbb5 14f7 4934 2ee7 f3b4
000001c0: 907a 0534 2f23 c4b7 8531 10b8 0c37 5738
000001d0: 8726 0d33 cb99 4db2 258c 22b5 f356 8bb5
000001e0: e450 52b0 f8b1 7533 0840 5db8 ed69 d5b5
000001f0: 1653 de33 e113 6d34 7a6c 9eb3 4ae9 c5b2
00000200: 8d40 2ab6 b106 f3b4 eded 9fb1 811b 1b33
00000210: 12f0 a232 767b 92b3 9936 a3b2 2bce a736
00000220: c03d 3cb4 2a35 8632 e04d 3031 5827 8130
00000230: 1fe3 c930 8047 4d31 cef7 c830 496a 4f30
00000240: c3a4 8eb0 f5ad 44b9 8710 15b6 f4d2 f733
00000250: d737 34b9 50fb 82ba 9b9c 253a d534 a7ba
00000260: 6a7d 6eb8 27fc dab9 4aec fab7 5fd0 1539
00000270: c7dd 1538 ebda 4336 6c52 efb5 4155 883a
00000280: c146 d736 290d 0e3a ec0e fcb8 cb47 beb8
00000290: 3096 d73a acb4 76b7 9ae2 6238 e253 90ba
000002a0: 472f 2eba d812 0bb5 d48b f33a 67f4 2f38
000002b0: 0f75 ab38 6b08 beba f2cf e4b9 8e31 2138
000002c0: a81e 4535 f259 61b6 7a8a 61ba 0288 15b8
000002d0: a6e6 6b3d 6569 6e3d 53dc 873d 69f2 1b3d
000002e0: 9594 2c3d 791d 103c bb16 2e3d f844 28be
000002f0: d400 053d 16d8 37bd 7730 e6bc 2683 3dbd
00000300: b7d9 9f3d 7444 c2bc eaac ea3c 121d 4e3c
00000310: f54a e03c 2bb5 39bd e9fe 033d 3cd2 443c
00000320: c9eb 7c3b d6cd d43d 9fbe ca3d 9166 6e3d
00000330: 4e4f f8bc 98d3 a7bd 67b5 d2bc 051c 81bd
00000340: 626a 65bb f736 edbc b973 ffbc 8c36 05bd
00000350: aa9f 01be e0f1 72ba 4b4e e13c 7c5a 8abd
00000360: f2eb fd3c ad6d 173e c8b9 42bd 5c47 8b3d
00000370: f587 22be 51aa 0ebe acc8 9ebd 966e 6a3d
00000380: 580b ea3b d58b 49bd 1b19 dd3d d7ed 263d
00000390: 9616 d23d 14b5 b9bd 2b13 f0bc 2212 80bd
000003a0: fe85 6abd c250 a93c d1bc 56bd bfdd c5be
000003b0: 13dd 30bd c82e a6bd 4f66 0bbd f20d 2f3e
000003c0: f88a d23e d50b 8cbd 57fb 013e 54e2 023e
000003d0: a0c6 3b3e 7466 2d3e 2a78 71bd 190f ae3d
000003e0: febd 303d 9c4e ef3e c660 ad3d cbcc bc3d
000003f0: 1469 443e 5feb 963d 94ea 88bc 9277 1b3e

layers.0.bias f4 [256]
-0.013290123 -0.017821286 0.030481206 -0.03748196 -0.08986625 -0.04038193 -4.98237e-40 0.07844593
-0.030779248 0.027811997 0.0028745735 -8.537532e-05 -0.042411797 -0.0018570247 0.08487204 -0.11866693
4.96156e-40 -8.792265e-32 -0.0007693119 -0.106825456 4.92922e-40 0.047787484 -0.017183583 -9.7779826e-05
-5.44794e-40 -3.3478416e-05 0.00018680743 -4.95587e-40 -0.07880111 -0.018018624 -0.0010625157 -0.06485691
0.042057056 0.0024541663 0.002628964 -0.12585597 5.0792e-40 0.0072390214 0.023693414 -0.09635276
-0.089476034 -0.103038184 0.0009095474 -0.026928164 5.84957e-40 0.075251274 -0.016568402 -0.041177623
-1.1395461e-14 -0.0004885939 0.02847822 -0.064269416 -2.5593006e-05 -2.1337846e-05 0.00773949 -0.045233782
0.011973 4.92586e-40 -0.061301477 -4.94506e-40 -7.425385e-14 -0.047213282 -0.0014250675 0.07240068
-2.6543912e-06 4.97687e-40 -0.048695352 -0.03801252 -0.018862557 0.0026006545 -0.016385645 -0.08681045
-0.012403881 -0.0016307238 -4.9278e-40 -0.0065886094 -0.020415831 0.07435948 -0.02359849 -0.094540626
4.99412e-40 -0.03365269 5.14575e-40 4.6383432e-11 -0.015594056 5.02179e-40 -0.00029139916 0.012000515
0.03463669 -0.007997086 -0.079379834 -0.017332949 -4.95079e-40 -4.93167e-40 5.11062e-40 0.03526043
-4.92887e-40 -0.07908129 0.014667998 -5.0951e-40 0.092435524 4.92876e-40 -0.06304442 -0.01072035
-0.001953541 0.00015209115 -0.00031138796 4.92238e-40 4.92611e-40 -4.98833e-40 -0.045236126 -0.0030902734
-0.011660776 0.09345056 -0.00026728035 -0.046821088 0.004191777 -0.061787613 -5.04037e-40 -0.020614343
-0.006042387 -3.1889047e-12 0.0033982953 0.102939524 -0.06850045 -0.053579364 -0.02100656 0.08088103
-0.0012660649 0.09676576 -1.2566366e-06 -5.49264e-40 -0.0400903 -0.07915443 -0.0036945988 -0.114315085
0.0148601215 0.060964476 0.023526262 -4.91517e-40 0.049961682 0.067219414 0.06537504 0.06467755
0.01888292 0.039546095 0.04222947 0.092912495 0.020910896 -0.05369458 0.058830578 -0.055086307
0.019990884 -0.07855492 4.91016e-40 -0.094512746 -0.041268814 0.026724778 -0.04837334 -0.011354018
-4.92037e-40 0.00015146253 0.019403562 -0.00021573732 -0.05150478 -0.07148811 -0.02469946 4.9671e-40
0.014011914 0.09050192 -0.014757364 -0.0040679704 -1.7800742e-11 0.09376956 -0.01049012 0.015432262
0.020911386 -0.041228533 0.0071200216 4.91525e-40 -5.02349e-40 -0.04874993 0.02906236 0.0632508
0.07751728 -5.1992297e-06 5.10202e-40 4.9701e-40 0.030648839 -0.0011615244 -0.023924593 -4.92573e-40
-0.006661061 -0.031669896 -0.041693114 -0.0057350923 -0.06322888 0.017133866 -5.06708e-40 -0.028000228
-0.07059267 5.29326e-40 -0.007981794 0.047485188 0.012640784 0.056259096 -0.028100943 0.0027041228
-0.007263967 0.04809911 -0.012042435 0.07522105 5.17826e-40 -5.04591e-40 0.055642407 -0.018077716
0.02400485 0.034906417 0.059470203 -0.06888629 -1.9556981e-07 4.93044e-40 -0.004044538 -2.3552887e-16
0.0026521096 0.042593803 0.014218314 -0.007232052 4.92952e-40 0.026001286 0.0137525555 0.017251622
-0.07662706 -5.47531e-40 4.91012e-40 -0.0018346264 -0.0037616245 -0.12624899 -0.025870334 -0.064152375
-0.079331316 -0.07509695 -0.0071669677 -6.0328297e-05 -4.2894382e-05 4.90464e-40 4.9134e-40 -0.0059692496
-5.421468e-06 0.021597879 -8.481074e-12 0.06582555 -4.2917273e-07 -0.07091251 -1.6469791e-09 4.94081e-40
00000000: d1be 59bc f2fd 91bc b9b3 f93c af86 19bd
00000010: cc0b b8bd 8667 25bd e26c 0580 42a8 a03d
00000020: c324 fcbc fcd5 e33c 5763 3c3b 870b b3b8
00000030: feb7 2dbd 6967 f3ba 64d1 ad3d a607 f3bd
00000040: 1567 0500 a042 e48b a6ab 49ba 4ec7 dabd
00000050: 115e 0500 cfbc 433d 96c4 8cbc 250f cdb8
00000060: aaee 0580 2d6b 0cb8 bde1 4339 7f65 0580
00000070: 7a62 a1bd cb9b 93bc 1c44 8bba b3d3 84bd
00000080: 0544 2c3d 14d6 203b b24a 2c3b 63e0 00be
00000090: e087 0500 5035 ed3b b118 c23c 9954 c5bd
000000a0: 363f b7bd af05 d3bd b16e 6e3a 7498 dcbc
000000b0: 9f5e 0600 571d 9a3d 75ba 87bc dea9 28bd
000000c0: 4a48 4da8 fb14 00ba 284b e93c af9f 83bd
000000d0: 90b0 d6b7 adfe b2b7 8c9b fd3b 0f47 39bd
000000e0: 672a 443c 215d 0500 4217 7bbd 7b62 0580
000000f0: 6e34 a7a9 b762 41bd 55c9 baba cf46 943d
00000100: 1822 32b6 596b 0500 c774 47bd 04b3 1bbd
00000110: a685 9abc be6f 2a3b 303b 86bc adc9 b1bd
00000120: a639 4bbc 03be d5ba ac5d 0580 43e5 d7bb
00000130: 1a3f a7bc c849 983d 9f51 c1bc 849e c1bd
00000140: 2870 0500 67d7 09bd 6d9a 0500 1aff 4b2e
00000150: 367e 7fbc df77 0500 efc6 98b9 cf9d 443c
00000160: 34df 0d3d 3606 03bc e591 a2bd d4fd 8dbc
00000170: 1464 0580 c05e 0580 a290 0500 3e6d 103d
00000180: f85d 0580 5ff5 a1bd 0b52 703c 4e8c 0580
00000190: d64e bd3d f05d 0500 6f1d 81bd 68a4 2fbc
000001a0: fb06 00bb a87a 1f39 c941 a3b9 295c 0500
000001b0: 335d 0500 8b6e 0580 8449 39bd 2f86 4abb
000001c0: d70c 3fbc 0263 bf3d c321 8cb9 78c7 3fbd
000001d0: 2d5b 893b 0215 7dbd 0d7d 0580 69df a8bc
000001e0: 37ff c5bb 3366 60ac efb5 5e3b f5d1 d23d
000001f0: f749 8cbd 0976 5bbd f315 acbc f4a4 a53d
00000200: 17f2 a5ba 202d c63d b4a9 a8b5 20fb 0580
00000210: ba35 24bd b81b a2bd 1521 72bb 071e eabd
00000220: de77 733c e3b5 793d 26ba c03c 265a 0580
00000230: 9fa4 4c3d 55aa 893d 59e3 853d aa75 843d
00000240: 5ab0 9a3c 16fb 213d cff8 2c3d e848 be3d
00000250: 544d ab3c d9ee 5bbd 55f8 703d 2ea2 61bd
00000260: ecc3 a33c 67e1 a0bd c158 0500 e68f c1bd
00000270: 7d09 29bd eced da3c 2023 46bd 3406 3abc
00000280: 995b 0580 ead1 1e39 38f4 9e3c 8c37 62b9
00000290: adf6 52bd 5c68 92bd 8656 cabc a068 0500
000002a0: 3a92 653c 1259 b93d dfc8 71bc 9c4c 85bb
000002b0: b593 9cad 410a c03d c1de 2bbc 99d7 7c3c
000002c0: 5b4e ab3c 40df 28bd 124f e93b 2c5a 0500
000002d0: 5878 0580 02ae 47bd 3014 ee3c a389 813d
000002e0: 61c1 9e3d 0b75 aeb6 3c8e 0500 7669 0500
000002f0: 4613 fb3c 4b3e 98ba 82fd c3bc 185d 0580
00000300: 0845 dabb 4bb8 01bd 66c6 2abd 71ed bbbb
00000310: 257e 81bd 525c 8c3c 7f84 0580 bc60 e5bc
00000320: e492 90bd 8cc3 0500 12c6 02bc d47f 423d
00000330: 4a1b 4f3c f06f 663d f333 e6bc a737 313b
00000340: 9206 eebb 9303 453d a24d 45bc 7e0d 9a3d
00000350: 7da3 0500 987e 0580 4be9 633d b817 94bc
00000360: d2a5 c43c 08fa 0e3d 0797 733d 4114 8dbd
00000370: d2fd 51b4 685e 0500 0b88 84bb edc5 87a5
00000380: 04cf 2d3b d776 2e3d eef3 683c d9fa ecbb
00000390: 265e 0500 a600 d53c 6652 613c 4653 8d3c
000003a0: a6ee 9cbd 4bf6 0580 be58 0500 d977 f0ba
000003b0: 9685 76bb 6a47 01be 06ee d3bc 5262 83bd
000003c0: 7578 a2bd 6ecc 99bd e2d8 eabb 0409 7db8
000003d0: 7ee9 33b8 3757 0500 a859 0500 b299 c3bb
000003e0: 0eea b5b6 09ee b03c 5d33 15ad 8ccf 863d
000003f0: 0d69 e6b4 943a 91bd ed5b e2b0 4c61 0500

layers.2.weight f4 [128, 256]
-0.016066829 -0.01117155 -0.015224256 0.024276992 0.0090810545 -0.049094636 5.12837e-40 0.03868802
-0.0030549814 -0.028569965 -0.22377488 0.01274031 -0.059569485 0.0052124956 0.01645415 -0.05039953
-4.915e-40 -0.0003447484 -0.003453591 -0.06384757 2.9662377e-20 0.069690436 -0.016060924 0.0022755458
-4.94499e-40 0.0003905191 0.0029108776 4.9067207e-08 -0.00925595 0.018756898 -0.010987524 -0.020171896
0.02912399 0.026749551 0.056223497 -0.06309286 4.90794e-40 -0.15594977 -0.18321316 0.003632576
-0.02288878 -0.020823587 -0.01117107 0.047974534 4.9703e-40 -0.041993227 -0.054208443 0.05146882
0.0055178916 -0.00045738884 0.03006889 0.05212371 0.00015218838 0.015740959 0.011750118 -0.0046922695
-0.051772997 2.6473278e-06 0.020413619 -3.0132565e-05 -1.946515e-12 -0.027904034 0.004979279 0.049813952
0.007848324 -4.96138e-40 0.0038474617 0.04449578 0.080721684 0.041823726 -0.009634349 0.02243257
-0.051820397 0.0020951384 1.27244e-40 -0.015693871 -0.036871366 0.05664285 -0.045857284 -0.057879966
-5.76578e-40 -0.044067387 5.48e-40 -0.00321764 -0.044359922 -8.9493476e-08 0.005458774 0.033570442
0.05400853 -0.04369738 0.023730157 0.21611115 4.9953e-40 -0.011547325 4.92367e-40 -0.007151594
5.9214034e-07 -0.0033107516 -0.020034181 4.90865e-40 0.06711137 -4.93148e-40 0.04878626 -0.0054724426
-0.015781308 -0.028323935 -0.044886515 5.773509e-13 -4.94091e-40 5.03152e-40 0.054518845 -0.038879126
-0.039574917 -0.015284262 0.0030375218 0.028952915 -0.09259827 0.028652225 -4.9554e-40 0.034028556
0.016482975 0.008830987 -0.04861824 0.2567793 -0.019955728 0.002612364 -0.017510854 -0.0014682367
0.004879579 0.03968464 5.01023e-40 4.9513e-40 0.33641174 0.02992623 0.0023173867 0.00010474609
0.048756726 -0.044769917 0.045582544 2.9079157e-09 -0.036736805 0.04035015 0.006986131 0.02882289
0.0385826 -0.046195548 -0.22936541 -0.022048207 0.025694666 0.035824113 -0.011944884 -0.0008299799
-0.0021084654 0.02288834 2.0715786e-06 -0.03910169 -0.02213554 0.022345912 0.034979988 0.026623584
5.11742e-40 0.007652642 0.012805281 -0.011211184 0.057933886 0.018812783 0.041840885 -5.50947e-40
-0.02833539 -0.0081829745 -0.009481752 -0.002065102 -1.0598405e-06 0.024358176 -0.008289412 -0.022891609
0.015932202 -0.0058826115 0.027091943 -4.99304e-40 -4.90883e-40 0.04101344 -0.035871074 0.052792817
-0.053306136 -1.1117142e-05 -5.03056e-40 -6.25924e-40 -0.047943596 -0.0040110257 0.010373849 -5.02405e-40
0.008563843 0.010095624 -0.03673744 0.010518369 -0.048542976 -0.061465293 5.02954e-40 -0.009489465
0.049846012 6.0407e-40 0.004142478 -0.032079916 -0.035883527 0.035715837 -0.00012993494 0.03561445
-0.028949715 -0.2203867 0.0098583335 -0.04778044 -4.92258e-40 -5.13199e-40 -0.019821174 0.04681811
-0.012607974 -0.012006525 0.039824698 -0.0048161238 0.005504017 0.0047643003 -0.026365317 -0.00691336
-0.22487384 0.010536443 -0.06446148 -0.055094495 1.6520745e-07 -0.012388515 0.10241438 -0.041071244
-0.04861752 5.05685e-40 4.5365553e-08 0.012959412 -0.02415385 -0.042496 -0.014929514 0.037308395
0.062710576 -0.03572047 0.00064996706 -0.0025125495 0.0037093633 0.0021484357 -4.93748e-40 -0.0020886376
0.0001052438 0.02603183 0.0074957707 0.0461362 -0.006473896 0.05054741 -1.1974213e-07 2.9562592e-11
00000000: 959e 83bc e008 37bc 286f 79bc 8be0 c63c
00000010: b4c8 143c 7517 49bd 9595 0500 5477 1e3d
00000020: 1536 48bb 8f0b eabc 3e25 65be bcbc 503c
00000030: 22ff 73bd 95cd aa3b dbca 863c bd6f 4ebd
00000040: 1a5a 0580 59bf b4b9 a455 62bb 84c2 82bd
00000050: 9d13 0c1f dcb9 8e3d 3392 83bc 5321 153b
00000060: 7662 0580 96be cc39 6cc4 3e3b f7bd 5233
00000070: 45a6 17bc 11a8 993c 0405 34bc 883f a5bc
00000080: 6f95 ee3c e021 db3c 9c4a 663d d436 81bd
00000090: 2258 0500 4cb1 1fbe 3b9c 3bbe 8310 6e3b
000000a0: 4081 bbbc 3a96 aabc dd06 37bc f280 443d
000000b0: 8469 0500 1701 2cbd ac09 5ebd f8d0 523d
000000c0: 6ecf b43b b1cd efb9 0853 f63c ac7f 553d
000000d0: c294 1f39 2ff3 803c 9183 403c 9cc1 99bb
000000e0: ec0f 54bd bfa8 3136 763a a73c 31c5 fcb7
000000f0: 4cf9 08ac 0097 e4bc 3829 a33b b709 4c3d
00000100: 4296 003c 0867 0580 b225 7c3b 3541 363d
00000110: 6951 a53d 5b4f 2b3d 63d9 1dbc 82c4 b73c
00000120: a041 54bd 974e 093b b462 0100 6f90 80bc
00000130: 6e06 17bd 5502 683d d9d4 3bbd 8b13 6dbd
00000140: 4447 0680 0180 34bd 9af7 0500 0bdf 52bb
00000150: c0b2 35bd 8f2f c0b3 84df b23b 2981 093d
00000160: 0c38 5d3d 06fc 32bd bf65 c23c 3e4c 5d3e
00000170: 7d70 0500 fe30 3dbc 855c 0500 eb57 eabb
00000180: 93f3 1e35 32f9 58bb b91e a4bc 5558 0500
00000190: b071 893d b25e 0580 1ad4 473d 2d52 b3bb
000001a0: cd47 81bc 9907 e8bc ecda 37bd 8482 222b
000001b0: 5361 0580 957a 0500 274f 5f3d b83f 1fbd
000001c0: 4f19 22bd d76a 7abc 2911 473b aa2e ed3c
000001d0: 29a4 bdbd 12b8 ea3c 5d65 0580 8761 0b3d
000001e0: 4e07 873c d8af 103c eb23 47bd 9478 833e
000001f0: 327a a3bc 3234 2b3b ec72 8fbc d971 c0ba
00000200: e0e4 9f3b 5c8c 223d a674 0500 3964 0500
00000210: 293e ac3e da27 f53c 4cdf 173b 21ab db38
00000220: 22b5 473d a960 37bd c3b4 3a3d 98d4 4731
00000230: 5579 16bd 3346 253d eaeb e43b fb1d ec3c
00000240: ca08 1e3d 8b37 3dbd c4de 6abe 719e b4bc
00000250: 9f7d d23c 4ebc 123d 7ab4 43bc 0293 59ba
00000260: 2e2e 0abb 5480 bb3c 7305 0b36 1829 20bd
00000270: 9855 b5bc c60e b73c 2d47 0f3d b419 da3c
00000280: 8792 0500 04c3 fa3b 3ecd 513c 1daf 37bc
00000290: 154c 6d3d 441d 9a3c 5961 2b3d d1ff 0580
000002a0: 9f1f e8bc e211 06bc 5a59 1bbc aa56 07bb
000002b0: d83f 8eb5 cc8a c73c 50d0 07bc 2f87 bbbc
000002c0: 4084 823c ecc2 c0bb ecef dd3c db6f 0580
000002d0: 6258 0580 b5fd 273d 8ced 12bd 483d 583d
000002e0: 8957 5abd c383 3ab7 517a 0580 d2d0 0680
000002f0: 8160 44bd ec6e 83bb 14f7 293c 8078 0580
00000300: 5c4f 0c3c 1e68 253c ff79 16bd 3d55 2c3c
00000310: 00d5 46bd 08c3 7bbd 087a 0500 b379 1bbc
00000320: 552b 4c3d e793 0600 a0bd 873b 3b66 03bd
00000330: 9bfa 12bd c54a 123d 253f 08b9 75e0 113d
00000340: f427 edbc 0dad 61be d984 213c 6cb5 43bd
00000350: 375c 0580 9796 0580 0460 a2bc 59c4 3f3d
00000360: ad91 4ebc 04b7 44bc 391f 233d 93d0 9dbb
00000370: 0b5b b43b d91d 9c3b 14fc d7bc 7889 e2bb
00000380: 5445 66be 0ca1 2c3c 6104 84bd c4aa 61bd
00000390: e163 3134 33f9 4abc a1be d13d 523a 28bd
000003a0: 2a23 47bd a581 0500 f4d7 4233 b753 543c
000003b0: 4bde c5bc 4910 2ebd ec9a 74bc b0d0 183d
000003c0: 676e 803d a14f 12bd 8d62 2a3a 96a9 24bb
000003d0: ca18 733b c5cc 0c3b 5e60 0580 86e1 08bb
000003e0: 56b6 dc38 b440 d53c 159f f53b 50f9 3c3d
000003f0: fa22 d4bb cd0a 4f3d 7792 00b4 8504 022e

layers.2.bias f4 [128]
0.03054758 -4.94534e-40 -0.059272353 -8.677157e-13 0.00631059 -4.94595e-40 -2.0938527e-05 -0.003726095
4.90693e-40 -0.000120936005 0.049247034 -0.0134051405 0.05556774 -3.6875567e-09 4.91239e-40 -3.949078e-05
-2.5179926e-16 0.024251353 -0.047219265 -4.93993e-40 4.92397e-40 0.051305216 0.060065605 -0.005864804
-0.056289714 0.051614482 0.027152225 -0.067578346 -0.0006345452 -0.048288673 -1.231832e-09 -0.0062677963
5.794407e-29 5.003971e-24 -5.746804e-18 -0.023496259 -4.90553e-40 -0.06355491 4.93379e-40 0.03848355
-0.042549968 -0.0018697871 -0.0009189948 -5.12474e-40 0.053090874 -0.005570936 5.06241e-40 -0.039709616
-4.970628e-35 0.050398104 -5.529324e-13 -0.061132018 0.012765852 -3.2628882e-15 0.025629064 0.01930674
-0.046032105 -5.55888e-40 -0.008978768 0.04570898 -0.00050629355 0.021918824 0.060341448 4.93348e-40
-0.05568179 4.90694e-40 0.059199646 -0.002043997 -0.0088892095 -0.05202187 0.062190775 4.92758e-40
0.053743377 -6.085952e-10 -0.0027308736 -3.3712226e-07 -2.9433874e-08 4.9539e-40 -0.056667138 -0.048528716
0.018995 -1.0059417e-15 -5.11248e-40 -0.04431714 -1.995348e-07 -2.6038302e-05 -0.033411387 -3.906245e-09
-1.385066e-06 0.00855361 -0.016343065 0.055062596 -0.00076980697 -5.984121e-13 -0.00029664737 0.045908507
-2.1584401e-05 -2.4230648e-10 -0.0023579986 -4.274328e-05 -7.566693e-08 -0.060794845 0.056206986 0.0035243402
0.017514238 0.0432872 4.92404e-40 -5.09172e-40 -4.90771e-40 0.0029222085 -0.047605455 -0.0005999312
4.92376e-40 0.057110697 -1.2678222e-16 5.18709e-40 -0.0011938644 -4.8922113e-05 -0.038339045 -9.2817096e-08
-0.012231032 0.015074189 4.93784e-40 -0.05299061 -0.06082863 -0.037537225 -0.022228833 -0.004408196
00000000: eb3e fa3c 8f62 0580 91c7 72bd 813d 74ab
00000010: 11c9 ce3b bb62 0580 25a5 afb7 8031 74bb
00000020: da57 0500 069f fdb8 42b7 493d 3ca1 5bbc
00000030: 009b 633d 2f68 7db1 6059 0500 e7a2 25b8
00000040: 0327 91a5 c6aa c63c fd68 41bd 0d61 0580
00000050: 9a5c 0500 6b25 523d 5a07 763d 8b2d c0bb
00000060: 0b90 66bd b569 533d 586e de3c 8466 8abd
00000070: 9c57 26ba 58ca 45bd 3c4d a9b0 1662 cdbb
00000080: dae7 9210 ee94 c118 0705 d4a2 3a7b c0bc
00000090: 7657 0580 1429 82bd 575f 0500 eda0 1d3d
000000a0: e048 2ebd a513 f5ba b2e8 70ba 9294 0580
000000b0: d175 593d 668c b6bb 3283 0500 8da6 22bd
000000c0: 5724 8486 3e6e 4e3d faa2 1bab 9165 7abd
000000d0: dd27 513c aa1d 6ba7 0bf4 d13c 2b29 9e3c
000000e0: 298c 3cbd 970d 0680 af1b 13bc 5739 3b3d
000000f0: c9b8 04ba 1b8f b33c 9828 773d 415f 0500
00000100: 9712 64bd db57 0500 547b 723d 94f4 05bb
00000110: 0ca4 11bc e214 55bd c1bb 7e3d 9c5d 0500
00000120: 0422 5c3d 144a 27b0 75f8 32bb bbfd b4b4
00000130: c6d5 fcb2 f264 0500 cd1b 68bd 0cc6 46bd
00000140: 679b 9b3c b3f8 90a6 2791 0580 e485 35bd
00000150: b53f 56b4 d46c dab7 61da 08bd b237 86b1
00000160: 81e6 b9b5 7124 0c3c e4e1 85bc 5189 613d
00000170: dfcc 49ba 2370 28ab 5687 9bb9 8f0a 3c3d
00000180: 2610 b5b7 9b35 85af a788 1abb 3f47 33b8
00000190: 567e a2b3 0404 79bd 4c39 663d 9ef8 663b
000001a0: 057a 8f3c eb4d 313d 9f5c 0500 5d8b 0580
000001b0: 1258 0580 8682 3f3b f0fd 42bd b444 1dba
000001c0: 8b5c 0500 e8ec 693d 822b 12a5 f3a5 0500
000001d0: 717b 9cba b831 4db8 6709 1dbd bd52 c7b3
000001e0: ab64 48bc bbf9 763c 7860 0500 af0c 59bd
000001f0: 7127 79bd a2c0 19bd 3e19 b6bc a172 90bb

layers.4.weight f4 [1, 128]
0.015219067 6.462638e-30 0.075345546 -0.015308888 -0.049335703 0.0028020104 -0.004671134 0.0061767274
-0.00016277906 0.00092684367 -0.0012895635 2.0590687e-05 -0.03171183 0.010183306 -4.57154e-40 -0.0002617343
0.009204083 0.036201295 0.06115884 0.009413068 1.5048212e-05 -0.020543067 -0.053929243 0.017294612
-0.06882506 -0.0743198 0.041030664 -0.05988646 -0.0039150785 -0.0033873848 0.0027740735 0.0019577136
5.064248e-10 -0.0017906777 0.007856774 -0.0019167273 -5.00968e-40 0.035660766 1.52755e-11 0.074473
-0.04927875 -0.046123352 -0.0006195824 -4.93099e-40 0.019395683 0.0053137154 -7.352742e-24 0.002310522
0.009844253 -0.003979392 0.010491038 -0.06406914 0.05748579 0.009118774 0.0037392473 0.0042179986
0.070884325 -2.26513e-18 -0.0019968937 -0.042200416 -0.0049002916 0.06702583 -0.024053903 -4.94144e-40
0.027899163 -4.723679e-05 -0.012460755 0.008468442 0.015595657 0.07277204 -0.07488554 4.97474e-40
0.003824107 0.00989044 0.014710517 -1.9011745e-10 -0.011209064 5.82289e-40 0.06276513 0.03494459
-0.08046942 0.009164031 4.92737e-40 -0.039214846 0.0021427933 -0.0031774538 0.024730092 -1.058683e-09
0.0021366584 -0.03152183 0.023361487 -0.05015208 -0.0028832033 -0.010441305 0.0028618912 -0.01863857
2.4252971e-05 -2.6696638e-05 -0.0030461906 -0.0037550502 -0.007056437 -0.04517568 -0.030978907 -0.060036026
0.054301772 -0.06628156 -0.0016548501 0.00028990695 0.009364127 -0.02838198 -0.06927553 0.0129081765
0.0013426876 -0.036666106 -0.006678503 4.93183e-40 0.011928411 -0.00077142374 0.04073387 0.0006029845
0.005007636 0.0657404 0.005832089 0.05634208 -0.060663596 0.05407673 0.004298957 0.053555805
00000000: 6559 793c ef13 030f c44e 9a3d 21d2 7abc
00000010: 3c14 4abd efa1 373b 5010 99bb 2566 ca3b
00000020: acaf 2ab9 6df7 723a 9206 a9ba 2aba ac37
00000030: 44e4 01bd e2d7 263c 5cfa 0480 6239 89b9
00000040: b9cc 163c cf47 143d b181 7a3d 4539 1a3c
00000050: 9477 7c37 ef49 a8bc e9e4 5cbd 6ead 8d3c
00000060: 27f4 8cbd fb34 98bd c50f 283d 814b 75bd
00000070: 0f4a 80bb e3fe 5dbb 3bcd 353b fc4c 003b
00000080: 7a34 0b30 2cb5 eaba b3b9 003c b23a fbba
00000090: 7f74 0580 0611 123d 5e5d 862d 4d85 983d
000000a0: 84d8 49bd d7eb 3cbd 796b 22ba 8f5e 0580
000000b0: b2e3 9e3c ad1e ae3b 0439 0e99 206c 173b
000000c0: ca49 213c 8f65 82bb 9ae2 2b3c ae36 83bd
000000d0: 3876 6b3d e966 153c 290e 753b 2337 8a3b
000000e0: cd2b 913d 1923 27a2 51de 02bb 58da 2cbd
000000f0: a092 a0bb d744 893d b10c c5bc 7961 0580
00000100: c98c e43c 1e20 46b8 3228 4cbc 38bf 0a3c
00000110: ed84 7f3c 8209 953d 975d 99bd c16a 0500
00000120: df9d 7a3b 830b 223c 6104 713c 4e09 51af
00000130: 39a6 37bc 2f57 0600 018b 803d 0f22 0f3d
00000140: 27cd a4bd bb24 163c 8d5d 0500 bf9f 20bd
00000150: 1b6e 0c3b d43c 50bb c396 ca3c 1981 91b0
00000160: 2e07 0c3b 091d 01bd 9760 bf3c 446c 4dbd
00000170: 20f4 3cbb 0212 2bbc 918e 3b3b eaaf 98bc
00000180: dc72 cb37 98f2 dfb7 99a2 47bb 4a17 76bb
00000190: af39 e7bb 220a 39bd 7ac7 fdbc 56e8 75bd
000001a0: 896b 5e3d a0be 87bd 8ee7 d8ba a7fe 9739
000001b0: ff6b 193c 5381 e8bc 54e0 8dbd d17c 533c
000001c0: 1ffd af3a 332f 16bd 58d7 dabb cb5e 0500
000001d0: 626f 433c 5f39 4aba 8fd8 263d 9b11 1e3a
000001e0: 1817 a43b e7a2 863d 1c1b bf3b f4c6 663d
000001f0: 647a 78bd 907f 5d3d 44de 8c3b 555d 5b3d
